course/week3/conflearn_project/log/epoch=0-step=1600-v1.ckpt (torch, 598398 bytes, 9 tensors)

model.0.weight f4 [64, 768]
000000 dc a1 96 3e 28 cb 74 bc 8a 9c 25 bc e5 f4 01 3c
       0.29420364 -0.014941014 -0.010108123 0.007931923
000010 47 d5 fc 3c 70 e8 b4 ba 41 cd 0d 3d 04 43 78 3c
       0.030863417 -0.0013802182 0.034619574 0.0151526965
000020 5e 64 9b 3c 9a ba 63 3c 62 90 37 3d a8 72 ce 3e
       0.018968757 0.01389947 0.04481543 0.4032185
000030 82 2b 20 bd 74 65 43 bb 15 52 84 bd 59 2a da 3b
       -0.039103992 -0.002981511 -0.064609684 0.0066578803
000040 a2 07 9a 3d e6 de 2a 3d 3c c7 2d 3d da 04 b5 be
       0.07520987 0.04171648 0.042426333 -0.35355264
000050 13 f1 30 3d ba 42 02 be 32 8c d8 b9 40 5e 3f 3d
       0.043198656 -0.12720767 -0.00041303184 0.046720743
000060 c3 22 84 3c 36 a5 bd ba 9a 5f f2 bc f4 bb 3e 3e
       0.016129857 -0.0014468792 -0.029586602 0.18626386
000070 13 87 8e 3c 5a b8 bc 3c b4 72 1e 3d 09 7d eb 3d
       0.017398393 0.023037124 0.03868361 0.11498458
000080 4a c1 a0 bd c0 d4 93 3c 54 2e c9 bb f8 37 95 3d
       -0.07849367 0.018045783 -0.006139556 0.07286066
000090 9b 88 fd bc 7b d6 87 3d 71 e5 1e 3d 39 28 44 3d
       -0.030948928 0.06632706 0.03879303 0.04788992
0000a0 1b ae b8 bc 72 cc 71 3c a8 1a 5b 3b 96 ad 86 3c
       -0.022543957 0.014758216 0.0033432636 0.016440194
0000b0 53 83 d0 bd 07 ed 9b bb 43 a3 ee bc 94 b4 ee bd
       -0.10181298 -0.0047584805 -0.029130584 -0.11655536
0000c0 42 d1 38 3d 4a 10 a0 3d 06 11 e1 bc a3 3f 6d bd
       0.04512144 0.07815607 -0.027473938 -0.057922017
0000d0 a5 8d 7c bb 3a 56 f4 3c 61 4d 99 3c 25 36 b4 bd
       -0.0038536575 0.029826272 0.018713655 -0.0879939
0000e0 95 9e bc 3b 30 45 04 3c e9 c1 66 bd d3 f0 8b bd
       0.005756209 0.008073136 -0.05633727 -0.06833043
0000f0 c6 c7 da 3d 9f 04 2d 3c ae 9d e2 bd 60 4b d1 3d
       0.10682635 0.010560184 -0.11065231 0.10219455
000100 89 14 18 be aa 87 71 bd c3 73 d5 3c 15 01 cb bb
       -0.14851584 -0.05896727 0.026056176 -0.0061951973
000110 ce f1 bc 3c be 33 4c bd 41 10 9c 3b cf 8b 17 bd
       0.02306452 -0.049854033 0.00476268 -0.036998566
000120 b9 d7 01 bc b3 9d e7 3c ba 67 f8 bb 04 1f 13 bd
       -0.007924967 0.028273439 -0.0075807245 -0.03591825
000130 a4 66 e4 3c a8 b8 4c bc 56 93 22 3c 76 70 a8 bc
       0.027880974 -0.012495197 0.009922823 -0.020561438
000140 cf 96 21 3d 97 7f 16 bd dc 42 67 bd 38 2c 4d 3b
       0.039450463 -0.036742773 -0.056460246 0.0031306874
000150 75 20 de 3c a4 2e 33 3e 65 cd 38 3d ee 11 02 bb
       0.027115086 0.1749826 0.045117754 -0.0019847113
000160 90 55 e9 3c 36 33 f3 bc 0b 8b 0f bd cf 9d 56 bc
       0.028483182 -0.029687505 -0.03504471 -0.013099148
000170 fa a0 a0 3d 6d 7c 5b bd cf 86 85 3d 44 8f 89 3e
       0.07843204 -0.05358546 0.06519853 0.26867115
000180 6a 59 63 be b7 be 11 bd 48 6d f0 3c 00 30 a0 bd
       -0.22202078 -0.03558227 0.029348984 -0.07821655
000190 d1 0e b2 3d ec ff 37 bd a7 39 b5 3c e7 94 c3 bb
       0.08694232 -0.0449218 0.022122217 -0.0059686783
0001a0 c4 c9 79 be b4 0e dd 3c 6e 79 7a bd 36 a9 49 3c
       -0.24393374 0.02698455 -0.06115096 0.012308409
0001b0 26 bf ea 3d 0a 78 d8 3b 93 ab bb 3c 51 1c f5 ba
       0.1146224 0.0066061066 0.022908961 -0.0018700456
0001c0 36 b9 4a 3d ae 95 ad be 3b 15 3c 3d 0c 4b 62 bd
       0.049493037 -0.3390326 0.045918684 -0.05524735
0001d0 4c 1c 0e bd 41 62 80 3d d1 a8 6e 3b 16 aa 0b bd
       -0.034694955 0.062687404 0.003641654 -0.034097753
0001e0 fd e3 d7 be 9d 2b 5e bd 3c e0 1e 3d af 09 ba bc
       -0.4216613 -0.05424081 0.038788065 -0.022709696
0001f0 8c 90 f5 3a 25 28 c9 bc 30 3b f4 3c fa 1e 29 3a
       0.0018735095 -0.024555275 0.029813379 0.0006451454
000200 38 42 b9 3b 62 0b f4 bb 66 e0 e7 bd 9f 1f 0d 3d
       0.005653646 -0.007447646 -0.113220975 0.034453984
000210 9a 3f 80 3d b1 10 af bc da 93 c9 bc 8b d4 0c 3c
       0.06262131 -0.021370264 -0.024606634 0.008595596
000220 73 92 ef 3d e0 9e ad 3b 45 ad af bc 7d 0c b9 3c
       0.11697855 0.0052984804 -0.021444926 0.022588963
000230 0c 66 82 3d 14 1f 5e 3c 03 50 9e bd e6 50 ab 3c
       0.0636712 0.013557214 -0.07730105 0.020912599
000240 37 b8 89 3d 13 46 6e 3c ab 82 58 3d 5a b3 c4 bc
       0.06724589 0.014543074 0.05285899 -0.024011303
000250 ae 8a b4 3c 66 bf fc 3b ea 7b ca 3d 87 3b e7 bb
       0.022038784 0.007713246 0.09886916 -0.0070566568
000260 b1 70 04 3d c8 a6 51 3c af ad b4 3c 05 97 26 3d
       0.032334033 0.012796111 0.022055475 0.040671367
000270 57 f7 5d 3e 90 ab 10 bd 05 09 78 3c df fa 51 3b
       0.21676384 -0.035319865 0.015138869 0.00320404
000280 e2 0d 1e 3d 1d 7e b0 3d 9a cc 19 bc 35 24 19 bd
       0.03858746 0.08617804 -0.00938716 -0.037388045
000290 e4 c4 3a 3e 3f 07 b3 3c 68 b4 7d 3e 84 7c cd 3d
       0.1823917 0.021854041 0.24775851 0.10033515
0002a0 97 f1 18 3d a6 58 f8 bc 65 10 ec 3b ff 64 25 3c
       0.037339773 -0.030315708 0.007204103 0.01009488
0002b0 e5 f1 0c ba ab b8 ac 3c 82 ec 93 bc bf c7 57 bd
       -0.0005376621 0.02108415 -0.018057112 -0.052680727
0002c0 29 d8 5b bb e0 f1 5c 3d 90 41 a3 3c 19 f5 3b bd
       -0.003354559 0.053941607 0.019928724 -0.04588804
0002d0 c8 d7 90 be 04 17 9d 3c 80 f3 82 3e a0 9d ab 3d
       -0.28289628 0.019176014 0.255764 0.08379674
0002e0 67 ae c1 3c 28 34 cf bc 5a 79 a6 3c a7 71 04 bc
       0.023642732 -0.025293425 0.020321537 -0.008083737
0002f0 72 21 0b 3b ab a6 4b bc 01 13 0a 3d 58 17 c1 bc
       0.0021229652 -0.012429873 0.03370953 -0.023570701
000300 0e ae a1 3d b4 02 d0 3b 02 0e df 3c ba 1a a4 3c
       0.078945264 0.0063479785 0.02722836 0.020032275
000310 86 4d 6a bc cb 4a c4 bc 28 11 0c bd 5e 5a 93 bb
       -0.01430071 -0.023961445 -0.03419605 -0.0044968566
000320 a7 57 27 3d 5c 5d 0a bb 16 53 fd 3d 48 99 82 3c
       0.040855076 -0.0021112775 0.12369363 0.01594223
000330 f6 b2 04 bd 45 c2 96 be da 77 28 3d 34 48 d9 3c
       -0.032397233 -0.2944509 0.041129924 0.026523687
000340 cf 98 b9 bc 82 04 ee 3c bd fc c2 3d 3b 8e ab bc
       -0.022655873 0.029054884 0.09520862 -0.020941844
000350 ba d9 6c 3d b3 94 fb be d4 3e 13 3d 3c f7 94 3d
       0.057824828 -0.49136886 0.03594859 0.07273719
000360 f3 09 73 3b 07 67 2d 3d 84 2b 28 bc 6c 97 b3 3c
       0.0037084788 0.042334583 -0.010264281 0.02192279
000370 a6 b8 25 3d 8a b6 f2 bc 24 bf 38 3d 9f da 33 3c
       0.040459298 -0.029628057 0.04510416 0.010977416
000380 1c 9a aa 3c 72 20 e6 ba 75 60 46 bc 1f f4 75 3d
       0.020825438 -0.0017557277 -0.012107958 0.060047265
000390 2d 1f 7e bc e2 5d c2 3c e2 80 43 3d d5 78 c2 3a
       -0.015510363 0.023726407 0.047730334 0.0014837036
0003a0 35 6d 32 bc 97 6f 08 3d af fa 85 bc 1b df fc 3b
       -0.010890295 0.033309545 -0.016354887 0.007717026
0003b0 78 bf 4b bd c1 32 23 3d 1a f5 a5 3d fc 8f 21 bd
       -0.049743146 0.039843325 0.0810339 -0.039443955
0003c0 40 6d 9c bc 82 06 cd bc 32 c1 09 3d d6 3f 2c 3c
       -0.019095063 -0.025027517 0.03363151 0.010513267
0003d0 aa c2 c8 bc 2d d9 51 3d 98 2b 06 3d a0 c1 82 bc
       -0.024506886 0.051232506 0.032756418 -0.015961468
0003e0 e8 93 68 3d b6 31 2e 3b db 67 08 3d 22 ab 0c bd
       0.05678168 0.0026579923 0.03330217 -0.034342892
0003f0 a9 07 1b bc 01 17 f3 3a 08 b5 8e bb a3 49 c6 3c
       -0.009462276 0.0018546284 -0.0043550767 0.024205035

model.0.bias f4 [64]
000000 23 5a 3e bc 8d 9d b3 3c 42 0d dd bc 09 94 2e bc
       -0.01161817 0.021925712 -0.02698386 -0.0106554115
000010 5c 89 b3 bb cd 7d d8 bc a0 a3 06 3d b6 2e 64 bc
       -0.005479021 -0.026427174 0.03287089 -0.013927152
000020 a6 c4 d1 3c c7 70 de bc 8b 2d 05 3b 4d 30 49 bc
       0.025606465 -0.027153386 0.0020321335 -0.012279582
000030 02 5e 93 3c ab 41 d5 3b e0 63 fd bc 19 04 02 3c
       0.017989162 0.0065080724 -0.030931413 0.007935547
000040 61 28 91 3c 80 70 ec 3b 40 03 cc bc 59 d3 fb bb
       0.01771945 0.0072155595 -0.024903893 -0.0076851067
000050 e9 bd 01 bd 31 6a 10 3c b9 b8 e2 bc 17 5e 17 3d
       -0.031675253 0.0088143805 -0.027675973 0.036954965
000060 25 d9 76 3c 03 f7 14 3d c0 22 dd 3c 7c 7e a3 bc
       0.01506642 0.03636838 0.02699411 -0.019957773
000070 56 9d e0 bc fc 43 72 3b c1 31 c4 bc cd ed 52 bc
       -0.027418774 0.0036966791 -0.023949506 -0.012874079
000080 b6 98 7e 3c 2e 08 a1 bc 59 80 76 3c 26 9a f7 bc
       0.015539339 -0.01965722 0.015045249 -0.03022487
000090 19 52 47 3c b3 43 b2 3c d4 14 bb bc e8 d5 11 3d
       0.01216557 0.021760797 -0.02283708 0.035604388
0000a0 b6 f8 dd 3c 28 93 76 3c 20 99 07 3d bf a8 9d bc
       0.027096134 0.015049733 0.033105016 -0.019245503
0000b0 97 2a b2 3c 95 b0 e8 3c 38 62 7a 3b 4f e5 ad 3c
       0.021748824 0.028404513 0.0038205516 0.021227507
0000c0 37 8b a1 bc 24 9b 09 bd 8a 28 2d 3c 7b 53 ee bc
       -0.019719703 -0.03359522 0.010568747 -0.029092541
0000d0 a2 6f a2 3c 51 57 05 3d 8f eb 1a bc 6c 90 d4 bc
       0.019828621 0.032553975 -0.009455576 -0.025947772
0000e0 c8 e5 d4 bc 8d 26 73 3c 23 e0 a4 ba 0b da 0c 3d
       -0.025988474 0.014840734 -0.0012579005 0.03438763
0000f0 c7 a1 f5 3c e4 23 e0 bc 15 fd 87 bc 9c 1c d1 3c
       0.029984368 -0.027360864 -0.016600171 0.025526337

model.2.weight f4 [1, 64]
000000 54 ce 88 3e 45 e7 70 3e 2b 5b 73 be 0a 6e 88 3d
       0.26719916 0.23525722 -0.23765247 0.06661613
000010 05 7c 55 3e ae 18 97 bd 28 26 5b 3d 11 69 9e be
       0.20848091 -0.07377754 0.053503186 -0.30939534
000020 78 46 a3 bd bc 0d 7f 3d 40 5c ab 3c 37 2c fe 3b
       -0.07972425 0.062268957 0.020918012 0.0077567357
000030 dd ee 99 39 3d ad fe bc dc dc b4 bc 88 bd 3c bd
       0.000293604 -0.031088466 -0.02207797 -0.04607919
000040 5d 5e 21 bd 40 10 b3 bc 62 70 8e bd 34 1b 8e 3d
       -0.039396632 -0.021858335 -0.06955029 0.06938782
000050 18 db 80 bc 08 54 e3 bc 56 34 db bd 77 a8 ad be
       -0.015729472 -0.02775003 -0.10703342 -0.3391759
000060 1d 93 8a 3e 58 9d a6 be 22 ee 92 be b2 d3 7c be
       0.27065364 -0.3254192 -0.28697306 -0.2469013
000070 b0 75 5e be 72 9e 8f be 5a 93 c3 3d 4e fd b0 3d
       -0.21724582 -0.28050572 0.095495895 0.08642064
000080 bf 0f 9c 3d 83 06 07 3d 4a 90 b8 3d d8 b9 a8 bc
       0.07620191 0.032965194 0.09011896 -0.02059643
000090 3c cc 8d be 14 25 6d be c0 b4 82 3c bc 54 75 3d
       -0.2769488 -0.23158675 0.015955329 0.059895262
0000a0 fe 4a 84 3e 4c 0e de 3d a0 13 90 bd 84 eb d6 3d
       0.25838464 0.10842571 -0.07034993 0.1049414
0000b0 e0 62 25 bd ea 60 68 be c0 1b aa 3b df 8c 3a 3c
       -0.040377498 -0.2269322 0.0051912963 0.011386125
0000c0 9a 38 bd bb 39 14 a5 3e 44 56 62 bd 24 de c2 3d
       -0.0057745697 0.3224199 -0.05525805 0.09515026
0000d0 04 f6 68 bd 58 72 a7 3c b8 0c f9 3d 34 ea 97 3c
       -0.056875244 0.020440266 0.12160629 0.018544294
0000e0 5b 40 90 bd 04 90 63 bd 66 2a 6a 3e 58 95 82 3d
       -0.07043525 -0.055557266 0.22867736 0.06376141
0000f0 64 bd e3 bd 0e a4 ae 3d a0 9f 7d bc c0 88 6c bd
       -0.11120108 0.08527385 -0.015479952 -0.057747602

exp_avg f4 [64, 768]
000000 4b 46 c6 b8 d5 59 25 b9 fc 9e 0c b9 f0 81 de b8
       -9.454469e-05 -0.00015769091 -0.00013410667 -0.00010609988
000010 b3 ad 84 38 2a bf b3 38 55 18 86 39 c5 99 91 b8
       6.3266045e-05 8.570992e-05 0.000255766 -6.9427806e-05
000020 57 06 01 b9 b6 36 66 b9 52 f1 c7 36 02 5f 37 b9
       -0.0001230476 -0.0002195489 5.9587555e-06 -0.00017487633
000030 fa 08 e0 38 09 0a ae 38 78 f8 d9 38 08 c4 04 3a
       0.00010682824 8.298836e-05 0.00010393647 0.00050646113
000040 b5 6f 25 b8 2a fd 2c ba 9a 01 fb b7 f3 23 68 39
       -3.94431e-05 -0.00065990037 -2.9922277e-05 0.00022138636
000050 23 0c 08 ba c2 6a 8f 39 f1 61 05 3a 51 0e c8 38
       -0.0005189797 0.00027354626 0.0005088142 9.53941e-05
000060 c7 39 4a 39 b5 53 0b 39 25 5b a7 b7 69 0c a9 b8
       0.00019285745 0.00013287256 -1.9950394e-05 -8.0608595e-05
000070 48 47 13 39 13 83 eb 38 c4 96 6e 39 c8 8b c5 b8
       0.00014045567 0.00011230088 0.00022753613 -9.419728e-05
000080 2a 05 a8 39 d3 36 21 39 59 26 7b b9 46 52 ca b8
       0.00032047305 0.0001537458 -0.00023951511 -9.647435e-05
000090 b0 ab 80 b9 e5 34 e3 37 9d b8 66 38 27 cb 99 b9
       -0.0002454198 2.708514e-05 5.5008208e-05 -0.00029333794
0000a0 7f bd 2e b9 59 9a 0c 38 52 fb 80 39 60 01 94 b9
       -0.00016664526 3.352235e-05 0.0002460131 -0.00028229784
0000b0 5b 6b 86 38 60 51 a5 39 6a 08 b2 39 93 b5 46 39
       6.4096144e-05 0.00031531882 0.00033957075 0.00018950393
0000c0 9f c8 26 b9 e8 d0 a6 b9 62 78 5f b9 be f4 44 3a
       -0.00015905731 -0.00031817635 -0.00021311783 0.0007513276
0000d0 83 df 50 39 ab 98 cf 38 16 27 ce b7 e2 ce 7d 39
       0.0001991969 9.898966e-05 -2.4575314e-05 0.0002420503
0000e0 e3 61 20 b9 c5 b7 ab 39 d8 ad b8 b7 3c 2d cf 38
       -0.00015295255 0.0003275258 -2.2015462e-05 9.878955e-05
0000f0 cb 1d e9 b9 65 5c 88 b9 02 aa 8a 37 96 5b 13 b9
       -0.0004446342 -0.0002600878 1.6530048e-05 -0.00014053131
000100 9c 52 1f 37 21 77 4d 38 53 eb 2f 38 b5 ab 04 b8
       9.4963725e-06 4.8986756e-05 4.1942414e-05 -3.1631167e-05
000110 84 d6 f5 b8 f5 4f 4b 39 aa 64 0f b7 a9 1d c7 38
       -0.00011722467 0.00019389375 -8.546902e-06 9.494584e-05
000120 ff ea 70 38 c4 77 cb b9 ce d8 c2 b9 ca 66 35 39
       5.7439316e-05 -0.0003880841 -0.00037164096 0.00017299797
000130 61 98 0b ba 4d 65 b8 b7 17 12 b4 39 d1 30 da 39
       -0.00053251354 -2.1981681e-05 0.00034345753 0.0004161657
000140 62 0c 6f b9 4b e2 81 39 78 68 a4 38 85 e6 5d 39
       -0.00022797429 0.000247734 7.839588e-05 0.00021162078
000150 bf 22 a9 b7 6f a3 6c b9 eb cd ba b7 13 c9 62 b7
       -2.016255e-05 -0.00022567598 -2.2268816e-05 -1.3517466e-05
000160 3c f2 04 39 77 33 13 3a eb cd 00 b9 b2 c5 c2 b9
       0.0001267874 0.0005615274 -0.00012283742 -0.00037149858
000170 c0 f8 d4 b8 a7 33 1b 38 33 1f 6b b9 22 fe 31 b9
       -0.00010155281 3.7002985e-05 -0.00022422969 -0.00016974707
000180 99 5b a9 39 1f bf 00 b9 84 95 4b b9 4d 45 bc 38
       0.00032302437 -0.0001227823 -0.00019415288 8.977447e-05
000190 1d cd ac b8 e7 b4 f1 b7 e0 50 c1 b8 43 52 c8 38
       -8.2398044e-05 -2.8813678e-05 -9.218021e-05 9.5520656e-05
0001a0 4f 01 6d 37 bd 79 9e b9 fb 00 f0 b7 c5 79 c4 39
       1.41266055e-05 -0.0003022681 -2.8610686e-05 0.0003747476
0001b0 c5 78 21 b9 ff 8d f8 b8 a4 58 8f b9 b1 ae 9a 39
       -0.00015399147 -0.0001185201 -0.00027341128 0.00029503324
0001c0 97 23 bb 38 00 ed c5 39 ef f8 3d b8 96 d2 13 3a
       8.923484e-05 0.00037751347 -4.529295e-05 0.0005638985
0001d0 a4 86 70 39 a0 f4 0f ba cb ab d7 39 9a f1 cd b8
       0.00022938341 -0.0005491469 0.0004113599 -9.8201635e-05
0001e0 fc 09 67 39 d4 8a 6e 37 a1 d3 92 b7 aa ee a5 39
       0.00022033596 1.4218229e-05 -1.7503104e-05 0.0003164907
0001f0 29 6d 69 b8 13 62 3a 39 78 47 65 38 5a 68 93 39
       -5.5653192e-05 0.00017774878 5.4664415e-05 0.00028115773
000200 86 15 9b 39 a3 be 9b 38 cd 46 90 38 f8 1c 52 b6
       0.0002957994 7.426485e-05 6.879643e-05 -3.13093e-06
000210 e9 e1 8b b9 59 79 c2 38 1b bb 07 39 6a 98 94 39
       -0.00026680462 9.2732436e-05 0.00012944305 0.00028342317
000220 b0 56 77 b8 0f da ae b9 d4 9f 93 b9 c1 54 79 39
       -5.8970123e-05 -0.00033350333 -0.00028157106 0.00023778064
000230 d8 69 92 38 59 b3 54 39 09 ab d0 38 9a 9e ca b6
       6.9815374e-05 0.00020284708 9.950071e-05 -6.038533e-06
000240 ee 7a b1 37 60 2a a0 39 7b 6b 3e b8 cf ff d2 b9
       2.1157288e-05 0.0003054915 -4.539963e-05 -0.00040244914
000250 70 10 eb b8 96 42 b9 39 0d 1e 84 b9 1c b1 30 b8
       -0.00011208735 0.0003533556 -0.00025199392 -4.2126616e-05
000260 b0 14 8d b9 fc 35 ed b9 13 9f 39 b9 23 65 87 b9
       -0.0002690903 -0.00045244384 -0.00017702235 -0.0002582456
000270 f9 a3 ee b8 bd f0 42 b9 ff b9 4c b8 44 20 a7 39
       -0.00011379267 -0.00018590964 -4.8810612e-05 0.00031876762
000280 0f b4 25 b9 1e 4a 28 b9 bd 68 e9 b8 b4 a6 dd b8
       -0.00015802703 -0.0001604934 -0.00011129815 -0.00010569152
000290 25 b6 4c b9 d0 7b a2 b8 cd 55 69 b9 b8 3d 86 b9
       -0.0001952281 -7.747824e-05 -0.00022252575 -0.00025604456
0002a0 d4 e3 2d b9 15 6a bd b9 bd f7 41 38 fb 19 04 ba
       -0.00016583438 -0.00036127926 4.624551e-05 -0.0005039272
0002b0 1d 41 0f b9 53 d5 98 b8 6c 0c 9f b9 6d f1 d7 39
       -0.000136618 -7.2876595e-05 -0.00030336098 0.00041187872
0002c0 7d de 06 ba 97 15 0c 38 ac 3c d5 39 89 37 25 37
       -0.00051448477 3.339871e-05 0.0004067173 9.847697e-06
0002d0 db 4e 8e 38 ac 7f 0f b9 84 4f 18 b9 2d 13 bd b8
       6.7857756e-05 -0.00013685104 -0.00014525471 -9.015794e-05
0002e0 1a f7 25 39 5a fb 9b 39 33 c5 a1 b9 b7 93 79 39
       0.00015827679 0.00029751175 -0.00030855238 0.00023801519
0002f0 77 f6 e1 38 1e 34 b4 39 8e 3d 71 38 2d c7 75 b8
       0.00010774744 0.00034371106 5.7516205e-05 -5.859805e-05
000300 c4 c5 ac b9 1f 20 4a 39 d4 35 d4 b9 30 0e 31 39
       -0.00032953743 0.00019276187 -0.00040475896 0.0001688532
000310 15 ed 79 b9 77 51 a9 39 b6 8c 8f b9 f1 e5 b2 b9
       -0.0002383481 0.00032294888 -0.00027379923 -0.00034122125
000320 2c e3 46 39 69 f2 85 b9 49 d9 5f b9 ce ad 75 b8
       0.0001896738 -0.00025548346 -0.00021347882 -5.857442e-05
000330 e6 a0 bc 39 91 63 a4 38 5e c7 fb b7 39 0d 4e b9
       0.00035978033 7.838675e-05 -3.001437e-05 -0.00019650617
000340 11 d0 b2 39 09 6a 87 39 da 3e 12 b9 a9 b6 ab b9
       0.00034105827 0.0002582821 -0.00013947059 -0.00032751754
000350 7c 55 8e 38 7a bf 97 39 05 ea 59 b8 e0 3f 5d b9
       6.78701e-05 0.00028943626 -5.195478e-05 -0.00021099998
000360 39 e0 54 39 81 e5 a9 38 9a 8d 98 37 39 51 a1 b9
       0.00020301425 8.1012964e-05 1.818575e-05 -0.0003076883
000370 a0 55 5a b9 b6 c4 9c 39 b3 e7 ce 38 1c 29 c6 b9
       -0.00020821998 0.000299012 9.866003e-05 -0.00037796132
000380 df 1f 92 38 c4 5c 04 ba 29 9d af b9 b2 b0 a9 b9
       6.967759e-05 -0.00050492235 -0.00033495695 -0.0003236584
000390 0f 11 c1 38 7f a9 25 39 08 88 ba b8 cc 0b 1e b9
       9.2061346e-05 0.00015798768 -8.894509e-05 -0.00015072449
0003a0 02 ee cd 37 b1 68 21 b9 c8 01 ea b9 c7 ec 9a b9
       2.4548735e-05 -0.00015393157 -0.00044633285 -0.00029549582
0003b0 67 e0 4a 38 83 b8 37 39 f8 8e 11 b9 11 26 de 39
       4.8369544e-05 0.00017520976 -0.00013881538 0.000423715
0003c0 47 ba a9 39 76 f8 0c 38 e8 15 f9 38 b8 98 6c 38
       0.0003237298 3.361e-05 0.000118773256 5.6409015e-05
0003d0 0e 6f 07 39 00 f3 a3 b9 81 03 28 b9 58 80 79 b9
       0.00012915974 -0.00031270832 -0.00016023034 -0.00023794302
0003e0 d3 b4 1c b9 d2 31 b6 b9 1c 35 10 ba c2 7b 59 b7
       -0.00014944682 -0.00034750864 -0.0005501078 -1.29630225e-05
0003f0 2b 9a 1c 3a 62 b0 a4 b9 ac 43 07 39 72 c0 e3 39
       0.00059739006 -0.00031411933 0.00012899813 0.00043440197

exp_avg_sq f4 [64, 768]
000000 ab 1a 16 33 85 ca 22 37 60 29 34 37 37 d0 c2 35
       3.494885e-08 9.703105e-06 1.0738469e-05 1.4514725e-06
000010 1d 84 8a 36 4e 00 29 37 71 82 72 37 05 06 81 35
       4.1281005e-06 1.0073256e-05 1.4454695e-05 9.613001e-07
000020 ce a7 c4 35 3e 37 d3 36 70 ef 80 37 dd 2c 0b 33
       1.4651976e-06 6.294721e-06 1.5370286e-05 3.2404262e-08
000030 c8 69 00 36 dc ac 57 36 de 3d b8 36 ae 04 5c 38
       1.913506e-06 3.2138114e-06 5.4908296e-06 5.2456446e-05
000040 c0 bf 2d 37 fd 4b 5a 38 f6 0c 37 35 fc 3c e2 33
       1.0356249e-05 5.204602e-05 6.8191673e-07 1.0535038e-07
000050 4a 4a 80 37 b7 91 99 35 f5 4a 55 38 5b 20 cb 37
       1.5293383e-05 1.1441797e-06 5.0852967e-05 2.4214552e-05
000060 62 bf 67 36 ea 67 1f 35 76 0e bc 36 43 a8 5c 33
       3.4533082e-06 5.938333e-07 5.60452e-06 5.1375775e-08
000070 cf ef ae 36 36 37 53 37 16 d6 ab 37 b0 5f ac 34
       5.2135215e-06 1.2589435e-05 2.048448e-05 3.2107118e-07
000080 7c a2 2c 36 df 28 73 37 4e 65 62 37 57 3a 81 35
       2.5724576e-06 1.4493445e-05 1.3494237e-05 9.628228e-07
000090 8f 9a c0 37 ac 43 99 33 d4 0f 8c 37 de 6f 2a 37
       2.2960156e-05 7.136927e-08 1.6696671e-05 1.0158836e-05
0000a0 3c 4a ee 35 db 09 00 37 5a 13 14 37 92 8e aa 36
       1.7753987e-06 7.631689e-06 8.825993e-06 5.082992e-06
0000b0 05 37 26 36 60 b3 1b 38 c5 a0 76 37 11 71 2d 34
       2.4767953e-06 3.7121936e-05 1.4700175e-05 1.6153014e-07
0000c0 6b 36 88 36 25 4b 07 36 8b cc d8 37 08 d0 ee 37
       4.059451e-06 2.0160307e-06 2.5844454e-05 2.8468683e-05
0000d0 9f 84 b2 37 bd c6 08 37 6c 2d d0 34 c4 4c 1d 35
       2.128101e-05 8.152504e-06 3.8776068e-07 5.8598766e-07
0000e0 03 0a 5b 36 e2 81 7a 37 f3 71 76 35 11 5f 02 36
       3.263937e-06 1.4931402e-05 9.180796e-07 1.9426845e-06
0000f0 8d 66 5a 36 64 f2 22 37 ee d0 31 33 d9 21 12 35
       3.2544224e-06 9.712388e-06 4.1401044e-08 5.4438493e-07
000100 26 7c 04 34 e5 6d 9f 36 89 e2 1a 36 52 5f 9f 36
       1.2338623e-07 4.7513627e-06 2.307965e-06 4.749666e-06
000110 8e c0 a0 36 bf 34 34 35 6c b0 0f 36 f2 fc 93 36
       4.790788e-06 6.713198e-07 2.1411352e-06 4.410388e-06
000120 97 42 ee 36 e5 0f b5 37 74 96 99 37 f9 8d 47 35
       7.100705e-06 2.1584283e-05 1.8309081e-05 7.4339874e-07
000130 92 dd aa 38 2d 34 35 36 2e d4 b5 37 46 c8 2e 38
       8.1475024e-05 2.7001472e-06 2.1675685e-05 4.1671352e-05
000140 c3 d3 dc 35 66 b4 32 37 69 de 72 34 b6 d1 36 37
       1.6452908e-06 1.0651629e-05 2.2618919e-07 1.08968725e-05
000150 e2 fe 35 34 17 47 0a 35 e6 16 ab 34 a4 92 91 36
       1.6949664e-07 5.1512455e-07 3.1867893e-07 4.338408e-06
000160 8a c9 e6 36 fd b3 74 37 50 93 17 37 6d 62 18 38
       6.8779964e-06 1.458544e-05 9.0346e-06 3.633129e-05
000170 6b 02 bd 35 46 33 94 33 e0 58 34 36 c1 83 66 34
       1.4082301e-06 6.9011136e-08 2.6873822e-06 2.1468351e-07
000180 c1 37 b3 34 0c e5 e1 35 35 45 e8 36 7c 76 f2 36
       3.3381914e-07 1.6830468e-06 6.9221956e-06 7.2259554e-06
000190 fd 37 86 35 72 dd 6e 37 21 2c a7 36 7a ac 79 37
       1.0000073e-06 1.4237465e-05 4.982125e-06 1.4881714e-05
0001a0 0f 59 93 33 d6 a7 1b 37 ee df 07 33 d7 30 ae 37
       6.8614206e-08 9.277797e-06 3.16358e-08 2.076516e-05
0001b0 45 e3 9a 35 74 78 2a 36 0c a9 f6 36 55 40 3b 38
       1.1540038e-06 2.5402087e-06 7.351051e-06 4.4644188e-05
0001c0 91 2e d0 37 76 59 83 34 51 dc 10 34 ca 44 df 36
       2.4817216e-05 2.4465743e-07 1.3491196e-07 6.653926e-06
0001d0 ab 05 97 36 10 b0 9e 37 2d 04 36 38 8b ff ac 37
       4.5008105e-06 1.8917053e-05 4.339607e-05 2.0622994e-05
0001e0 d1 59 5d 33 24 f2 0d 36 d3 21 7c 36 ca c5 10 37
       5.153726e-08 2.1151582e-06 3.7570614e-06 8.62912e-06
0001f0 f2 78 3d 37 43 6f 8a 37 e6 26 89 36 ec 8f 9a 37
       1.1293438e-05 1.6502692e-05 4.0874465e-06 1.842525e-05
000200 d4 74 f5 36 07 b7 2f 36 44 e8 84 34 11 f1 53 36
       7.3151696e-06 2.6183568e-06 2.4755911e-07 3.158177e-06
000210 43 4b 52 36 a2 bf ab 36 a2 3e 51 37 f3 24 3c 36
       3.1336247e-06 5.118506e-06 1.2471954e-05 2.803569e-06
000220 18 9a a6 33 c6 c6 d4 37 a0 0b 47 37 eb de 8a 37
       7.758007e-08 2.536493e-05 1.1864031e-05 1.6554686e-05
000230 0c 09 d4 37 b6 b0 9d 36 10 cd 28 35 d2 d1 0e 37
       2.5276582e-05 4.6995365e-06 6.288328e-07 8.512712e-06
000240 11 e5 11 36 df 70 47 37 c1 62 79 36 dd 90 13 38
       2.1740018e-06 1.1887604e-05 3.7161374e-06 3.5182446e-05
000250 2a 33 92 35 c2 62 ef 37 3e ed 02 36 ae 37 a1 36
       1.0892738e-06 2.8537008e-05 1.9509603e-06 4.804656e-06
000260 96 0d 5f 36 09 39 a1 37 70 d4 86 37 a3 3a 30 36
       3.3237498e-06 1.9219255e-05 1.6072969e-05 2.6260175e-06
000270 b2 1c 54 34 0f 16 c7 37 21 7d 51 36 85 fe ff 37
       1.9754478e-07 2.373292e-05 3.1216262e-06 3.0516889e-05
000280 58 a3 52 35 11 55 53 34 90 34 ea 36 c9 83 39 37
       7.846879e-07 1.9681853e-07 6.9798625e-06 1.1057543e-05
000290 25 01 9f 34 a5 5f 8d 36 40 de bf 33 60 c2 1f 36
       2.961689e-07 4.213262e-06 8.9345576e-08 2.3805987e-06
0002a0 bf 94 8b 35 d5 0e 39 38 a0 aa 69 36 77 03 8b 38
       1.0399598e-06 4.412125e-05 3.4819022e-06 6.628682e-05
0002b0 00 d6 4e 36 af b0 1c 37 37 ec c8 37 59 fe 89 37
       3.0820956e-06 9.339462e-06 2.3951854e-05 1.6450113e-05
0002c0 83 47 99 37 4a 02 2e 36 c0 24 18 38 32 62 af 34
       1.8272322e-05 2.5929353e-06 3.627385e-05 3.2667737e-07
0002d0 ee 86 c2 32 b3 7a 20 37 d3 50 41 34 26 e2 ef 35
       2.2645931e-08 9.565311e-06 1.800393e-07 1.7872705e-06
0002e0 54 ee b4 37 ff bc 86 37 4d 99 1a 38 77 26 24 36
       2.1568652e-05 1.6062053e-05 3.6859234e-05 2.4460294e-06
0002f0 44 1a 83 36 20 94 8e 37 47 77 88 36 e8 31 82 35
       3.907162e-06 1.6996695e-05 4.0670016e-06 9.700279e-07
000300 56 2e 85 36 55 97 81 36 bb 3b 27 37 11 3f ee 36
       3.969103e-06 3.862117e-06 9.967883e-06 7.1002946e-06
000310 24 9e 39 37 be ed ed 36 a0 37 6b 37 96 0f 2d 37
       1.1063679e-05 7.0908272e-06 1.4020043e-05 1.0315232e-05
000320 13 cb b8 37 0e 59 1f 38 93 6f e9 34 b1 77 ac 35
       2.2029073e-05 3.7991493e-05 4.3480813e-07 1.2849833e-06
000330 6f e1 7e 37 0b 7d 6b 33 ea a0 3b 35 6c 0a 1d 36
       1.5192068e-05 5.4828927e-08 6.989709e-07 2.340089e-06
000340 b1 b0 8a 36 de 9f 03 37 24 71 80 36 b1 66 1a 38
       4.13329e-06 7.84543e-06 3.8278686e-06 3.68121e-05
000350 04 46 9a 37 ce 9f f6 33 cd 0f e5 34 d1 e3 64 35
       1.8390834e-05 1.1484336e-07 4.266607e-07 8.5268135e-07
000360 be de fa 36 f6 91 66 37 ff 12 16 36 d6 a9 0a 38
       7.476511e-06 1.37430525e-05 2.23628e-06 3.3059936e-05
000370 3b 4a a2 36 0d 39 a1 36 af 96 a0 37 a8 f0 65 37
       4.836618e-06 4.8048155e-06 1.9143654e-05 1.3705496e-05
000380 af c3 e4 36 ff 7b b2 37 4d c6 23 38 0d 51 4f 36
       6.81771e-06 2.1276994e-05 3.904691e-05 3.0892581e-06
000390 ef 6f 38 37 6b 6b 26 37 df 4a ca 36 9a c4 97 37
       1.0993316e-05 9.919381e-06 6.0287853e-06 1.8092152e-05
0003a0 25 85 c4 36 4e bb 9d 36 4b 20 33 38 25 d0 fc 37
       5.8567553e-06 4.7007698e-06 4.2707e-05 3.0137666e-05
0003b0 93 11 3c 36 e1 ab 8a 37 d0 ba e8 36 11 6f d8 36
       2.8024413e-06 1.653092e-05 6.9358866e-06 6.4502315e-06
0003c0 7b 77 78 37 22 d8 44 34 fb 94 66 36 67 d7 cb 36
       1.4809771e-05 1.8332551e-07 3.4359389e-06 6.0749476e-06
0003d0 d2 8e ad 36 c2 6c 73 36 62 c5 fc 36 f6 13 f6 37
       5.1724282e-06 3.6273127e-06 7.5331636e-06 2.933478e-05
0003e0 91 d8 00 35 07 e7 9e 37 4b 62 23 37 20 5e 26 37
       4.799886e-07 1.8942648e-05 9.738443e-06 9.916286e-06
0003f0 0a a7 26 38 a7 e0 6c 37 74 06 51 37 28 4a 14 38
       3.973305e-05 1.4119002e-05 1.2458873e-05 3.5355013e-05

exp_avg f4 [64]
000000 b2 d4 83 3a eb 51 68 3a fd 88 8d ba 00 00 00 00
       0.0010057895 0.00088623044 -0.0010798272 0.0
000010 cb e5 4d 3a 04 00 00 00 00 00 00 00 f3 7e b0 ba
       0.0007854371 6e-45 0.0 -0.0013465568
000020 00 00 00 00 00 00 00 00 00 00 00 00 04 00 00 00
       0.0 0.0 0.0 6e-45
000030 04 00 00 00 04 00 00 00 04 00 00 00 00 00 00 00
       6e-45 6e-45 6e-45 0.0
000040 04 00 00 00 04 00 00 00 00 00 00 00 04 00 00 00
       6e-45 6e-45 0.0 6e-45
000050 00 00 00 00 00 00 00 00 00 00 00 00 74 97 c1 ba
       0.0 0.0 0.0 -0.0014769868
000060 4b 94 85 3a 6a bf b9 ba 74 10 a3 ba e2 a5 92 ba
       0.001019129 -0.0014171426 -0.0012440816 -0.0011188353
000070 c5 3d 81 ba 8c 95 a7 ba 00 00 00 00 00 00 00 00
       -0.0009860328 -0.0012785657 0.0 0.0
000080 04 00 00 00 04 00 00 00 00 00 00 00 00 00 00 00
       6e-45 6e-45 0.0 0.0
000090 eb 1c 9e ba 5e d5 89 ba 00 00 00 00 00 00 00 00
       -0.0012063062 -0.0010515859 0.0 0.0
0000a0 7c 06 7f 3a 04 00 00 00 00 00 00 00 04 00 00 00
       0.0009728444 6e-45 0.0 6e-45
0000b0 00 00 00 00 42 53 81 ba 00 00 00 00 04 00 00 00
       0.0 -0.0009866732 0.0 6e-45
0000c0 04 00 00 00 7f 2a 9f 3a 00 00 00 00 00 00 00 00
       6e-45 0.0012143402 0.0 0.0
0000d0 00 00 00 00 00 00 00 00 00 00 00 00 04 00 00 00
       0.0 0.0 0.0 6e-45
0000e0 0c 00 00 00 00 00 00 00 9c a8 61 3a 04 00 00 00
       1.7e-44 0.0 0.00086081936 6e-45
0000f0 00 00 00 00 04 00 00 00 00 00 00 00 00 00 00 00
       0.0 6e-45 0.0 0.0

exp_avg_sq f4 [64]
000000 73 95 68 39 7f 47 2c 39 cf ba 28 39 00 00 00 00
       0.00022180918 0.00016429833 0.0001609132 0.0
000010 2f ae f9 38 b5 81 2a 32 00 00 00 00 20 5e b5 39
       0.000119056895 9.924794e-09 0.0 0.0003459314
000020 00 00 00 00 00 00 00 00 00 00 00 00 f0 7c de 2c
       0.0 0.0 0.0 6.3234903e-12
000030 cb 62 74 2a 7d 7a 9a 30 03 e7 9b 32 00 00 00 00
       2.1705829e-13 1.1239788e-09 1.8149427e-08 0.0
000040 44 d8 aa 2f 51 f6 1d 31 00 00 00 00 9b 15 e6 33
       3.1076486e-10 2.2986522e-09 0.0 1.07141396e-07
000050 00 00 00 00 00 00 00 00 00 00 00 00 ff 87 d5 39
       0.0 0.0 0.0 0.0004072785
000060 9b 74 75 39 fb e0 bf 39 50 e0 96 39 ea eb 3a 39
       0.0002340846 0.00036597982 0.00028777355 0.00017826227
000070 7e 9d 0b 39 c8 9d 91 39 00 00 00 00 00 00 00 00
       0.00013314743 0.0002777411 0.0 0.0
000080 e8 04 1f 34 33 94 1c 33 00 00 00 00 00 00 00 00
       1.4809814e-07 3.6456367e-08 0.0 0.0
000090 df c3 79 39 03 c6 16 39 00 00 00 00 00 00 00 00
       0.00023819458 0.0001437888 0.0 0.0
0000a0 6a 4e 57 39 f3 e7 b7 35 00 00 00 00 aa d9 ac 34
       0.0002053321 1.3702069e-06 0.0 3.2195868e-07
0000b0 00 00 00 00 46 6f 17 39 00 00 00 00 95 09 28 2d
       0.0 0.00014441935 0.0 9.551822e-12
0000c0 eb 1e 94 2f 05 4f cb 39 00 00 00 00 00 00 00 00
       2.6943012e-10 0.0003877805 0.0 0.0
0000d0 00 00 00 00 00 00 00 00 00 00 00 00 3f 80 4f 32
       0.0 0.0 0.0 1.2078146e-08
0000e0 27 01 8b 32 00 00 00 00 c3 72 17 39 78 24 10 33
       1.6182254e-08 0.0 0.00014443234 3.356078e-08
0000f0 00 00 00 00 bb 02 3f 34 00 00 00 00 00 00 00 00
       0.0 1.7789255e-07 0.0 0.0

exp_avg f4 [1, 64]
000000 b4 d8 92 bc aa d4 a2 bc 0a cf af 3c 00 00 00 00
       -0.017925598 -0.019876797 0.021461029 0.0
000010 21 33 ab bc 04 00 00 80 00 00 00 00 1d f6 92 3c
       -0.020898404 -6e-45 0.0 0.017939622
000020 00 00 00 00 00 00 00 00 00 00 00 00 04 00 00 00
       0.0 0.0 0.0 6e-45
000030 04 00 00 00 04 00 00 80 04 00 00 80 00 00 00 00
       6e-45 -6e-45 -6e-45 0.0
000040 04 00 00 80 04 00 00 80 00 00 00 00 04 00 00 00
       -6e-45 -6e-45 0.0 6e-45
000050 00 00 00 00 00 00 00 00 00 00 00 00 12 0a 95 3c
       0.0 0.0 0.0 0.018193278
000060 67 61 8f bc 95 51 9d 3c d7 c9 95 3c a5 20 a5 3c
       -0.0175025 0.01920394 0.018284721 0.020157168
000070 fb 25 a8 3c 47 18 8f 3c 00 00 00 00 00 00 00 00
       0.020525923 0.017467631 0.0 0.0
000080 04 00 00 00 04 00 00 00 00 00 00 00 00 00 00 00
       6e-45 6e-45 0.0 0.0
000090 e8 8f a8 3c 78 81 c2 3c 00 00 00 00 00 00 00 00
       0.020576432 0.023743376 0.0 0.0
0000a0 aa e1 9b bc 04 00 00 00 00 00 00 00 04 00 00 00
       -0.019028503 6e-45 0.0 6e-45
0000b0 00 00 00 00 55 c7 b3 3c 00 00 00 00 04 00 00 00
       0.0 0.021945635 0.0 6e-45
0000c0 04 00 00 80 b4 25 88 bc 00 00 00 00 00 00 00 00
       -6e-45 -0.01661954 0.0 0.0
0000d0 00 00 00 00 00 00 00 00 00 00 00 00 04 00 00 00
       0.0 0.0 0.0 6e-45
0000e0 0d 00 00 80 00 00 00 00 59 71 a9 bc 04 00 00 00
       -1.8e-44 0.0 -0.020683931 6e-45
0000f0 00 00 00 00 04 00 00 00 00 00 00 00 00 00 00 00
       0.0 6e-45 0.0 0.0

exp_avg_sq f4 [1, 64]
000000 46 f1 66 3a c2 ac ad 3a 9b 84 67 3a 00 00 00 00
       0.0008809756 0.0013250338 0.00088317104 0.0
000010 9d 3a c0 3a e1 4d 54 2b 00 00 00 00 b8 d8 28 3a
       0.0014665906 7.542561e-13 0.0 0.0006440985
000020 00 00 00 00 00 00 00 00 00 00 00 00 24 2f e5 27
       0.0 0.0 0.0 6.361138e-15
000030 5a 90 00 2b 9f 7b 1c 2f e7 9d 97 34 00 00 00 00
       4.5675063e-13 1.4232036e-10 2.824083e-07 0.0
000040 8d 7b 18 2c 82 1d f9 31 00 00 00 00 95 62 8b 32
       2.1669084e-12 7.2502084e-09 0.0 1.622656e-08
000050 00 00 00 00 00 00 00 00 00 00 00 00 f6 8e 16 3a
       0.0 0.0 0.0 0.0005743349
000060 0e bf 6e 3a f0 ab 2a 3a bf e5 36 3a 03 c4 47 3a
       0.0009107449 0.0006510606 0.0006976984 0.00076204556
000070 d1 bf 61 3a d0 42 25 3a 00 00 00 00 00 00 00 00
       0.0008611652 0.00063042063 0.0 0.0
000080 80 94 14 34 56 81 8e 34 00 00 00 00 00 00 00 00
       1.3837598e-07 2.6543665e-07 0.0 0.0
000090 3b 39 4b 3a 54 fb 86 3a 00 00 00 00 00 00 00 00
       0.00077523635 0.001029829 0.0 0.0
0000a0 99 31 8f 3a 01 c4 71 35 00 00 00 00 79 7e aa 34
       0.0010924815 9.006472e-07 0.0 3.1756989e-07
0000b0 00 00 00 00 15 81 7c 3a 00 00 00 00 89 4b 1b 27
       0.0 0.0009632272 0.0 2.1551519e-15
0000c0 e1 fb 41 32 69 cc 79 3a 00 00 00 00 00 00 00 00
       1.1291349e-08 0.00095290557 0.0 0.0
0000d0 00 00 00 00 00 00 00 00 00 00 00 00 13 37 81 34
       0.0 0.0 0.0 2.4068194e-07
0000e0 bf 54 ae 32 00 00 00 00 0d 6f 9d 3a 39 e5 db 31
       2.0294804e-08 0.0 0.0012011245 6.3997985e-09
0000f0 00 00 00 00 fd 31 05 34 00 00 00 00 00 00 00 00
       0.0 1.2404776e-07 0.0 0.0
