course/week3/conflearn_project/log/epoch=9-step=16000-v1.ckpt (torch, 598398 bytes, 9 tensors)

model.0.weight f4 [64, 768]
000000 de 6d 81 3c 2d b3 e9 3b 33 e9 df 3c 5b 2a 17 3d
       0.01579946 0.007131955 0.027332878 0.036905628
000010 e7 93 72 3b ae 4c 01 bc f8 5c 28 3c 51 3e 93 3c
       0.0037014426 -0.007891817 0.010276072 0.01797405
000020 8d 0b ad 3c a5 97 ce bb 9c a2 07 bd b3 e8 e4 bc
       0.021123672 -0.0063046985 -0.03311406 -0.02794299
000030 25 b5 b8 bc fa 5c 6b bc 10 0b 0e 3d b9 2d 1d 3b
       -0.022547314 -0.014365429 0.03467852 0.0023983552
000040 69 e2 df 3b d5 d8 07 3d 5d 8c 6d 3c e6 4c 1a 3c
       0.00683241 0.03316577 0.014498797 0.009417748
000050 70 78 c3 bc 64 17 fe bc ea 22 36 bc 19 a9 95 3c
       -0.02386114 -0.031017013 -0.011116723 0.018269109
000060 4c 90 15 bd e3 cd 01 bd ad 60 1a 3d d8 1f 0b 3c
       -0.036514565 -0.03169049 0.037689853 0.008491479
000070 de ab cc 3c e7 d4 18 bc b9 a8 08 3d 59 13 06 bc
       0.024984296 -0.009328104 0.03336403 -0.008183324
000080 31 a9 c7 bc d1 e9 0d 3b 33 93 c9 bb 6a 95 98 bb
       -0.024372669 0.0021654258 -0.0061515807 -0.0046564834
000090 a2 a7 00 3d 4c 4b 97 bb 27 e3 10 bd f2 fd 1e bc
       0.031409867 -0.0046171304 -0.03537288 -0.0097041
0000a0 bf b4 6a 3c fc 1c 9c 3c aa d9 99 bc 83 bf 94 bc
       0.01432532 0.01905679 -0.018780548 -0.018157726
0000b0 b7 4b 9a b9 ac 8f 3a 3c 97 c4 16 bd 53 0d b4 bc
       -0.0002942958 0.011386793 -0.036808576 -0.02197901
0000c0 ea ca 85 3c e9 f2 ec bc 8d 48 c7 bc ce 3f c7 bc
       0.016332109 -0.028924422 -0.024326587 -0.024322417
0000d0 c7 41 a0 3c 13 fa b1 3b d1 47 04 bd 18 f1 a7 3c
       0.019562615 0.0054314225 -0.032295052 0.020500705
0000e0 b2 85 ac 3c b4 dd 15 3b 71 48 de bc 98 49 7b bb
       0.021059845 0.002286774 -0.027134152 -0.0038343426
0000f0 bf 15 e1 ba a8 1e bd 3c ef 6a e3 ba b0 e6 0d bb
       -0.0017172619 0.023085907 -0.0017350594 -0.0021652393
000100 7c 89 bf bc 59 d3 d6 ba 92 f1 af 3c 26 8c 04 bd
       -0.023380987 -0.0016389891 0.021477494 -0.03236022
000110 b6 42 90 bb 0d 12 da 3c 94 92 01 3d c7 6d 6c bc
       -0.004402484 0.026619935 0.03163393 -0.01443047
000120 7e f1 4c 3c 9b 2d 2d 3c f3 fe 06 bd 41 9b 5f bc
       0.012508748 0.010569955 -0.032957982 -0.013647855
000130 42 8b 3e bc f0 e6 bb 3b b6 6c 2d 3c 3a dd 48 bb
       -0.011629881 0.005734317 0.010585001 -0.003064944
000140 9d 24 41 3b 7d 2d 70 3b 65 17 3e bc 3b a0 d8 bb
       0.0029471286 0.0036648207 -0.011602257 -0.006610898
000150 02 7d 87 bb 38 b3 85 bc 0b d6 ab 3b 35 94 64 3b
       -0.004134775 -0.01632081 0.005244022 0.0034878377
000160 3b 72 ec 3c c6 9b a6 bb 5b 1e b9 3c 48 ea 00 3d
       0.028863063 -0.0050844876 0.022597482 0.031473428
000170 c2 df 03 bd cd ed 04 bd 35 80 ea 3c f6 bd d8 3c
       -0.032195814 -0.032453347 0.028625587 0.026457768
000180 fa 44 ff 3c d3 71 09 3d 91 a3 74 bc 07 96 c1 bc
       0.03116082 0.033555817 -0.014931575 -0.023631109
000190 f2 d9 80 bc a2 55 d6 bc 05 48 e7 3b 3a a1 12 bd
       -0.015728924 -0.02616388 0.007058146 -0.03579829
0001a0 9f 45 70 3c 65 34 82 3c 2d 11 14 bc 8c e7 e2 bc
       0.014665036 0.015894124 -0.009037298 -0.0276983
0001b0 cd 9c b1 bc 0f b5 09 bc 2a bc ec 3c 30 36 25 bc
       -0.021681214 -0.008404984 0.028898317 -0.01008372
0001c0 5d a1 37 3c 91 8f 0d 3d a2 a5 69 3c 0e 24 b8 3c
       0.011207906 0.034560744 0.014260681 0.02247813
0001d0 76 64 34 bc cc 4a 02 bd 0d 1f f2 bc 54 28 e6 bc
       -0.01101028 -0.031809613 -0.029555822 -0.028095402
0001e0 3e f0 af bc f8 a5 01 bd af 16 99 3c 11 24 c9 bc
       -0.021476861 -0.03165242 0.018687574 -0.02455333
0001f0 3f e3 9a 3c 33 1b 0f bd 08 69 ce bc d1 76 3f 3c
       0.018907188 -0.03493805 -0.025196567 0.011686043
000200 a8 57 94 3c 51 27 7f 3c f2 8b 77 bc 3b 0f f2 3c
       0.018108204 0.015573339 -0.015109049 0.029548278
000210 45 22 db 3c ab f4 a8 3b 9c e2 ca 3c 6c 2a c8 bc
       0.02674974 0.00515612 0.024766259 -0.02443429
000220 43 b4 19 3c f9 9a 3b 3c db 9c 0a bd da ad 21 bc
       0.009381357 0.011450523 -0.033840995 -0.00986811
000230 73 a3 87 bc 04 32 50 b9 f8 61 91 3c 5d 68 d1 3c
       -0.01655743 -0.00019855058 0.01774691 0.02556246
000240 43 e2 1a bc 8b 60 6a bc 81 8d 05 3d 6c 07 7c 3b
       -0.009453359 -0.014305244 0.03260565 0.0038456572
000250 ff ef ab 3c 6f a0 28 bc c0 c3 04 3d 2d 61 c5 bc
       0.020988462 -0.010292157 0.032413244 -0.024094189
000260 55 9b a7 3c 40 b6 01 bd a0 5b 11 3d f5 17 8b 3c
       0.02045981 -0.031667948 0.03548777 0.016979197
000270 ad 04 dc bc 2a c2 fa 3c ca d9 d1 bc 4f 74 76 bc
       -0.026857698 0.030610163 -0.025616545 -0.015042379
000280 48 9f 2d bc 2c a3 f4 3c 7c e1 97 bb 3c eb 08 3d
       -0.010597058 0.029862963 -0.004635034 0.033427462
000290 76 19 7a bb 79 1c ce 3a 84 17 0e bd b2 a5 cd bb
       -0.0038162149 0.0015725038 -0.034690395 -0.006275856
0002a0 4a d0 cf 3c 34 a0 98 3a 8a 13 b6 bc 37 d9 15 3d
       0.025367875 0.0011644424 -0.022226114 0.036584105
0002b0 9e dc b6 3b 45 1c d0 3c f2 e3 7d 3b d9 c5 90 bc
       0.005580499 0.025404105 0.0038740602 -0.017672466
0002c0 ac cd d1 3c 4b 68 81 bc 0d 77 24 3c 32 92 00 3d
       0.025610767 -0.015796801 0.01003815 0.031389423
0002d0 ae 45 a5 bc b9 21 09 3d 68 fa a0 3a e0 b8 96 3c
       -0.020174827 0.033479426 0.0012281658 0.018398702
0002e0 f7 a0 93 bc 94 e0 3f bb 7c c0 9b bc 6f 12 3e 3c
       -0.01802109 -0.0029278146 -0.019012682 0.011601075
0002f0 9e fe 15 bb 57 9c f4 3c 62 f8 72 bc 87 c3 28 bc
       -0.002288736 0.029859705 -0.014829727 -0.010300524
000300 b7 40 04 bd ab 45 e1 3c 49 16 fd 3c 5a 37 50 3c
       -0.03228828 0.02749904 0.030894415 0.012708509
000310 1a c4 a5 bc b0 bf fa bc 0f 89 b0 bc 71 ef 00 3d
       -0.02023511 -0.030608982 -0.02154973 0.03147835
000320 c0 9e 16 bd d5 ca 35 bc af 60 d0 bc 82 ed ae bc
       -0.03677249 -0.011095722 -0.025436727 -0.021353487
000330 5e be c2 3c 3c 37 af bb 36 ae d4 bc d9 42 b6 bc
       0.023772415 -0.0053471606 -0.025961976 -0.022248672
000340 d8 c1 1b bd fa a1 93 bb a8 e1 50 bc c6 8f c5 3c
       -0.03802666 -0.004505393 -0.012749113 0.024116408
000350 b5 4e 63 bc 9e 88 bc bc f1 7a 2a bc 0a 63 46 3b
       -0.013873746 -0.023014363 -0.010405288 0.0030271434
000360 a7 db 08 3d 56 7e a4 bb 30 e0 1c 3c 80 ca c4 bb
       0.0334126 -0.005019943 0.009574935 -0.006005585
000370 5d 42 80 3c f7 96 f3 bc 81 33 19 bd 9d 03 4c 3c
       0.015656644 -0.029735072 -0.037402634 0.012452033
000380 34 0b 98 3c d4 02 0e 3a ba 44 e1 bc 8e fe b9 bc
       0.01856003 0.00054172915 -0.027498592 -0.022704389
000390 90 d2 07 bd 2e e2 3a 3c 48 48 97 3c c6 d1 a0 3b
       -0.033159792 0.0114064645 0.018467084 0.0049078194
0003a0 43 e7 ba bc 1a 1b af bc b3 92 b0 bc 74 cf b4 bc
       -0.022815352 -0.021375228 -0.021554327 -0.022071578
0003b0 b3 36 a8 bb 15 93 9e bc a7 81 e0 3c 60 ef 85 3c
       -0.005133474 -0.019357244 0.027405573 0.016349494
0003c0 78 9f 1a bd f1 74 81 ba 72 5c ee bc 44 f5 ca 3c
       -0.037749738 -0.000987677 -0.029096816 0.024775155
0003d0 be 6b 35 3c 58 4b f7 bb 80 0d 13 bd c9 7e b0 3b
       0.011073051 -0.0075468235 -0.035901546 0.0053862077
0003e0 7a 74 19 bc f2 e5 2b bb 86 32 c5 bb ae 63 a8 3c
       -0.009366149 -0.0026229587 -0.0060179858 0.020555343
0003f0 cc 32 1a 3c e2 9a a6 bc 75 91 18 bd 9c a3 88 bb
       0.009411525 -0.020337526 -0.037248094 -0.0041698944

model.0.bias f4 [64]
000000 58 61 91 3c 39 89 82 3c ec d7 9b 3c db 0e 00 3d
       0.017746612 0.015934573 0.019023858 0.031264167
000010 fb 3b fb bc 87 ec c0 bc f9 b5 7e 3c 69 d7 a4 bc
       -0.03066825 -0.023550285 0.015546315 -0.020122247
000020 71 43 e1 3c 09 61 94 bc 28 99 4d bc 59 98 02 bd
       0.027497979 -0.018112676 -0.012548722 -0.03188357
000030 e3 e9 2f 3d 37 95 c4 3c bc 6a 79 3c c4 35 4b 3c
       0.04294766 0.023996932 0.015223201 0.012402955
000040 1c 9a 7d bc 2f 4e 08 bc 64 e7 ae bc c6 88 a4 3c
       -0.015478637 -0.008319422 -0.02135057 0.02008475
000050 00 5f 95 3c 5f 8f 1a 3c ce fe ea bc 9a 96 dd bc
       0.018233776 0.009433596 -0.028685953 -0.027049351
000060 58 58 b8 bb 97 46 b3 bc 1b 56 fb bb 91 95 38 bc
       -0.005625766 -0.021884246 -0.0076701767 -0.011266128
000070 2c 4e b5 bc 3b fb b6 3c 80 dc 3a bc 67 26 f8 3c
       -0.022132002 0.022336593 -0.01140511 0.03029175
000080 b4 37 89 bc 93 f3 2f 3d a1 9f b3 bc 12 97 c0 bc
       -0.016750194 0.0429569 -0.021926703 -0.023509536
000090 e6 2a 51 bc f1 89 99 3c 7c 52 5c bc 0a 1c 80 3c
       -0.012766575 0.018742533 -0.0134474 0.01563837
0000a0 a6 62 b3 bc c5 c4 de 3c 21 50 eb bc 9b 18 86 bc
       -0.021897625 0.027193436 -0.028724732 -0.016369155
0000b0 49 74 72 3c bb 5e c0 bc f8 ed dd 3c 5a 0d 7b bc
       0.014798232 -0.023482671 0.027091011 -0.0153230075
0000c0 ef 7b 02 bd 6a af 1e bb 80 c1 a9 bb 63 8a c6 3c
       -0.031856474 -0.0024213442 -0.0051805377 0.02423591
0000d0 49 77 0c 3c 58 57 5c 3c ac af 76 3c 40 73 96 3b
       0.008573362 0.013448559 0.015056532 0.0045913756
0000e0 fd 6f f2 bc 24 34 2f bc db 6d 2d bc 03 88 70 3c
       -0.029594416 -0.010693584 -0.010585274 0.014680865
0000f0 e6 e8 47 3c 0f 0c df bc 5b ac 7d ba 4c 12 ab 3b
       0.012201523 -0.02722743 -0.0009676867 0.005220687

model.2.weight f4 [1, 64]
000000 70 61 da bd 6d 29 e5 bd cf 92 69 bd 85 fe 33 bf
       -0.10663116 -0.11189542 -0.057024773 -0.7031024
000010 fc b3 c2 bd 00 1f db 3a e0 59 d6 3d 75 06 ca 3d
       -0.095069855 0.0016717613 0.10466361 0.09864513
000020 1b 0a 44 bf a8 2d 9f 3f ea 93 bd 3d b2 04 97 3f
       -0.7657792 1.2435808 0.09256728 1.1798308
000030 71 50 36 bf b8 ae a6 3d aa 33 c7 3d ca 9b cb 3d
       -0.71216494 0.08138794 0.09726651 0.09941824
000040 eb b7 4e 3d 10 85 a3 3c 7c c0 9f bd da 86 ce 3d
       0.050468367 0.01996091 -0.07800385 0.10084315
000050 84 27 fc 3d bf 9c 5c 3d b8 91 9e 3f 86 97 ba 3d
       0.123122245 0.053860422 1.238822 0.09110932
000060 82 2f 9c 3f b6 4e c1 bd 87 af 2e bd 6c be 8f 3f
       1.2201998 -0.09438841 -0.042647865 1.1229987
000070 b8 79 a1 3d f0 9c a4 bd e2 da e6 bd 01 f9 ae bd
       0.07884544 -0.08037746 -0.11272217 -0.085435875
000080 44 40 68 bd d9 c0 2c bf b0 97 99 bc 00 8b c5 3b
       -0.056701913 -0.6748176 -0.018749088 0.006028533
000090 6e 8f d2 3d 8c c2 93 3f 68 86 a3 3f 95 b8 38 bf
       0.10281263 1.1543746 1.2775393 -0.7215665
0000a0 fc 74 a3 3d 6d 2d 3f bf 2c d6 29 3d aa 40 bf 3d
       0.079812974 -0.7467869 0.041464016 0.093385056
0000b0 01 5e a7 bd 9d e6 ba 3d 17 31 a3 3f 41 ed 8f 3f
       -0.08172227 0.09126017 1.2749356 1.1244279
0000c0 1e 0a d5 bd 3e 94 1d 3d c9 31 b4 bb f8 4f c9 3c
       -0.1040232 0.038471453 -0.005499099 0.024574265
0000d0 c8 90 e6 3d de 10 a1 3f de 22 d4 bd 8d 5f 3a bc
       0.112580836 1.2583272 -0.10358213 -0.01137532
0000e0 2a bf b5 3d aa 09 83 3d 72 ed e3 bc 1e 44 ff 3d
       0.08874352 0.06398328 -0.027823184 0.12464164
0000f0 e8 50 9d 3f c0 eb 75 3b 60 89 25 bd 8e 50 93 bc
       1.2290316 0.003752455 -0.040414214 -0.017982747

exp_avg f4 [64, 768]
000000 04 00 00 00 04 00 00 80 04 00 00 80 04 00 00 80
       6e-45 -6e-45 -6e-45 -6e-45
000010 04 00 00 00 04 00 00 00 04 00 00 00 04 00 00 80
       6e-45 6e-45 6e-45 -6e-45
000020 04 00 00 80 04 00 00 80 04 00 00 00 04 00 00 00
       -6e-45 -6e-45 6e-45 6e-45
000030 04 00 00 80 04 00 00 00 04 00 00 80 04 00 00 00
       -6e-45 6e-45 -6e-45 6e-45
000040 04 00 00 00 04 00 00 80 04 00 00 00 04 00 00 80
       6e-45 -6e-45 6e-45 -6e-45
000050 04 00 00 80 04 00 00 00 04 00 00 00 04 00 00 00
       -6e-45 6e-45 6e-45 6e-45
000060 04 00 00 00 04 00 00 00 04 00 00 80 04 00 00 80
       6e-45 6e-45 -6e-45 -6e-45
000070 04 00 00 00 04 00 00 00 04 00 00 00 04 00 00 00
       6e-45 6e-45 6e-45 6e-45
000080 04 00 00 00 04 00 00 00 04 00 00 80 04 00 00 00
       6e-45 6e-45 -6e-45 6e-45
000090 04 00 00 80 04 00 00 00 04 00 00 00 04 00 00 80
       -6e-45 6e-45 6e-45 -6e-45
0000a0 04 00 00 80 04 00 00 00 04 00 00 00 04 00 00 80
       -6e-45 6e-45 6e-45 -6e-45
0000b0 04 00 00 80 04 00 00 00 04 00 00 00 04 00 00 00
       -6e-45 6e-45 6e-45 6e-45
0000c0 04 00 00 80 04 00 00 80 04 00 00 80 04 00 00 00
       -6e-45 -6e-45 -6e-45 6e-45
0000d0 04 00 00 00 04 00 00 00 04 00 00 80 04 00 00 00
       6e-45 6e-45 -6e-45 6e-45
0000e0 04 00 00 80 04 00 00 00 04 00 00 80 04 00 00 80
       -6e-45 6e-45 -6e-45 -6e-45
0000f0 04 00 00 80 04 00 00 80 04 00 00 80 04 00 00 80
       -6e-45 -6e-45 -6e-45 -6e-45
000100 04 00 00 80 04 00 00 80 04 00 00 00 04 00 00 80
       -6e-45 -6e-45 6e-45 -6e-45
000110 04 00 00 80 04 00 00 00 04 00 00 80 04 00 00 00
       -6e-45 6e-45 -6e-45 6e-45
000120 04 00 00 00 04 00 00 80 04 00 00 80 04 00 00 00
       6e-45 -6e-45 -6e-45 6e-45
000130 04 00 00 80 04 00 00 80 04 00 00 00 04 00 00 00
       -6e-45 -6e-45 6e-45 6e-45
000140 04 00 00 80 04 00 00 00 04 00 00 00 04 00 00 00
       -6e-45 6e-45 6e-45 6e-45
000150 04 00 00 80 04 00 00 80 04 00 00 80 04 00 00 80
       -6e-45 -6e-45 -6e-45 -6e-45
000160 04 00 00 00 04 00 00 00 04 00 00 80 04 00 00 80
       6e-45 6e-45 -6e-45 -6e-45
000170 04 00 00 00 04 00 00 00 04 00 00 80 04 00 00 00
       6e-45 6e-45 -6e-45 6e-45
000180 04 00 00 80 04 00 00 80 04 00 00 80 04 00 00 80
       -6e-45 -6e-45 -6e-45 -6e-45
000190 04 00 00 00 04 00 00 80 04 00 00 80 04 00 00 00
       6e-45 -6e-45 -6e-45 6e-45
0001a0 04 00 00 80 04 00 00 80 04 00 00 80 04 00 00 00
       -6e-45 -6e-45 -6e-45 6e-45
0001b0 04 00 00 00 04 00 00 80 04 00 00 80 04 00 00 00
       6e-45 -6e-45 -6e-45 6e-45
0001c0 04 00 00 00 04 00 00 80 04 00 00 00 04 00 00 00
       6e-45 -6e-45 6e-45 6e-45
0001d0 04 00 00 00 04 00 00 80 04 00 00 00 04 00 00 80
       6e-45 -6e-45 6e-45 -6e-45
0001e0 04 00 00 80 04 00 00 80 04 00 00 00 04 00 00 00
       -6e-45 -6e-45 6e-45 6e-45
0001f0 04 00 00 80 04 00 00 00 04 00 00 00 04 00 00 00
       -6e-45 6e-45 6e-45 6e-45
000200 04 00 00 00 04 00 00 00 04 00 00 80 04 00 00 00
       6e-45 6e-45 -6e-45 6e-45
000210 04 00 00 80 04 00 00 00 04 00 00 00 04 00 00 00
       -6e-45 6e-45 6e-45 6e-45
000220 04 00 00 00 04 00 00 80 04 00 00 80 04 00 00 00
       6e-45 -6e-45 -6e-45 6e-45
000230 04 00 00 00 04 00 00 00 04 00 00 80 04 00 00 00
       6e-45 6e-45 -6e-45 6e-45
000240 04 00 00 00 04 00 00 00 04 00 00 00 04 00 00 80
       6e-45 6e-45 6e-45 -6e-45
000250 04 00 00 00 04 00 00 00 04 00 00 00 04 00 00 00
       6e-45 6e-45 6e-45 6e-45
000260 04 00 00 80 04 00 00 80 04 00 00 80 04 00 00 80
       -6e-45 -6e-45 -6e-45 -6e-45
000270 04 00 00 00 04 00 00 80 04 00 00 80 04 00 00 00
       6e-45 -6e-45 -6e-45 6e-45
000280 04 00 00 00 04 00 00 00 04 00 00 80 04 00 00 80
       6e-45 6e-45 -6e-45 -6e-45
000290 04 00 00 80 04 00 00 80 04 00 00 00 04 00 00 00
       -6e-45 -6e-45 6e-45 6e-45
0002a0 04 00 00 80 04 00 00 80 04 00 00 80 04 00 00 80
       -6e-45 -6e-45 -6e-45 -6e-45
0002b0 04 00 00 80 04 00 00 00 04 00 00 80 04 00 00 00
       -6e-45 6e-45 -6e-45 6e-45
0002c0 04 00 00 80 04 00 00 00 04 00 00 00 04 00 00 00
       -6e-45 6e-45 6e-45 6e-45
0002d0 04 00 00 80 04 00 00 80 04 00 00 80 04 00 00 00
       -6e-45 -6e-45 -6e-45 6e-45
0002e0 04 00 00 00 04 00 00 00 04 00 00 80 04 00 00 00
       6e-45 6e-45 -6e-45 6e-45
0002f0 04 00 00 00 04 00 00 00 04 00 00 00 04 00 00 80
       6e-45 6e-45 6e-45 -6e-45
000300 04 00 00 80 04 00 00 00 04 00 00 80 04 00 00 00
       -6e-45 6e-45 -6e-45 6e-45
000310 04 00 00 80 04 00 00 00 04 00 00 80 04 00 00 80
       -6e-45 6e-45 -6e-45 -6e-45
000320 04 00 00 00 04 00 00 80 04 00 00 80 04 00 00 00
       6e-45 -6e-45 -6e-45 6e-45
000330 04 00 00 00 04 00 00 80 04 00 00 80 04 00 00 80
       6e-45 -6e-45 -6e-45 -6e-45
000340 04 00 00 00 04 00 00 00 04 00 00 00 04 00 00 80
       6e-45 6e-45 6e-45 -6e-45
000350 04 00 00 00 04 00 00 80 04 00 00 80 04 00 00 80
       6e-45 -6e-45 -6e-45 -6e-45
000360 04 00 00 00 04 00 00 00 04 00 00 00 04 00 00 80
       6e-45 6e-45 6e-45 -6e-45
000370 04 00 00 80 04 00 00 00 04 00 00 00 04 00 00 80
       -6e-45 6e-45 6e-45 -6e-45
000380 04 00 00 00 04 00 00 80 04 00 00 80 04 00 00 80
       6e-45 -6e-45 -6e-45 -6e-45
000390 04 00 00 00 04 00 00 00 04 00 00 00 04 00 00 80
       6e-45 6e-45 6e-45 -6e-45
0003a0 04 00 00 00 04 00 00 80 04 00 00 80 04 00 00 80
       6e-45 -6e-45 -6e-45 -6e-45
0003b0 04 00 00 80 04 00 00 00 04 00 00 00 04 00 00 00
       -6e-45 6e-45 6e-45 6e-45
0003c0 04 00 00 00 04 00 00 00 04 00 00 00 04 00 00 00
       6e-45 6e-45 6e-45 6e-45
0003d0 04 00 00 00 04 00 00 80 04 00 00 00 04 00 00 80
       6e-45 -6e-45 6e-45 -6e-45
0003e0 04 00 00 80 04 00 00 80 04 00 00 80 04 00 00 80
       -6e-45 -6e-45 -6e-45 -6e-45
0003f0 04 00 00 00 04 00 00 80 04 00 00 00 04 00 00 00
       6e-45 -6e-45 6e-45 6e-45

exp_avg_sq f4 [64, 768]
000000 5d b8 2d 22 d9 88 ea 25 71 b6 e1 25 cf 01 62 24
       2.3543473e-18 4.068526e-16 3.9154905e-16 4.900747e-17
000010 71 1c 15 25 97 39 c8 25 0f b0 18 26 5e 57 82 24
       1.2933326e-16 3.4733494e-16 5.29742e-16 5.652652e-17
000020 6b 96 27 24 a8 ef 8b 25 a0 77 06 26 ca 40 1f 22
       3.633976e-17 2.4275054e-16 4.665271e-16 2.1582817e-18
000030 65 a9 a5 24 59 44 c4 24 72 ac 6f 25 03 ec 12 27
       7.184431e-17 8.5117236e-17 2.0788372e-16 2.0389512e-15
000040 3f 3d e7 25 f4 e9 ed 26 28 4e 84 23 94 58 2b 23
       4.0113614e-16 1.6508592e-15 1.4344569e-17 9.288686e-18
000050 45 e4 09 26 49 31 54 24 e1 35 06 27 21 fd 83 26
       4.7840786e-16 4.6011918e-17 1.8625443e-15 9.158562e-16
000060 c2 de 35 25 c8 b1 28 24 63 7f 5c 25 d8 af 07 22
       1.5774721e-16 3.657978e-17 1.9125119e-16 1.8389003e-18
000070 09 47 75 25 37 af ff 25 b6 81 49 26 05 ea 30 24
       2.127443e-16 4.435418e-16 6.9911675e-16 3.836214e-17
000080 0f 12 83 24 1c 69 15 26 d2 1e 0d 26 06 fe 4d 24
       5.6842786e-17 5.183721e-16 4.896097e-16 4.4667455e-17
000090 72 e7 5f 26 25 37 fd 22 62 30 1c 26 16 df a8 25
       7.7682334e-16 6.8634174e-18 5.4188943e-16 2.9294523e-16
0000a0 c4 db 8d 24 58 0b 8e 25 fd 24 c4 25 ea 3c 22 25
       6.15213e-17 2.464076e-16 3.4025644e-16 1.4071899e-16
0000b0 a4 d0 0d 25 a2 5d ce 26 3c 68 18 26 55 ab ec 22
       1.2300491e-16 1.4319501e-15 5.287686e-16 6.4149333e-18
0000c0 0c 6b 16 25 e5 90 af 24 71 a6 a2 26 f4 b9 8f 26
       1.3046695e-16 7.613961e-17 1.1286122e-15 9.973021e-16
0000d0 fa db 50 26 d9 80 c4 25 a3 b4 90 22 b0 76 fa 23
       7.246262e-16 3.408789e-16 3.9222535e-18 2.715532e-17
0000e0 3f 47 4a 25 11 04 1e 26 27 7d 46 24 a2 3f e3 24
       1.7544846e-16 5.4822773e-16 4.3040414e-17 9.8553355e-17
0000f0 f5 35 fc 24 ac ba c7 25 a8 70 a2 21 ef 02 fd 23
       1.09378986e-16 3.464749e-16 1.1007367e-18 2.7431557e-17
000100 e1 4f f4 22 53 0b 45 25 0e 96 76 24 f6 72 3c 25
       6.6220908e-18 1.7090863e-16 5.3469848e-17 1.6345351e-16
000110 24 08 44 25 99 7f 09 24 a7 90 96 24 f0 50 4d 25
       1.7003048e-16 2.981522e-17 6.529718e-17 1.7808338e-16
000120 87 9c 85 25 2c cb 53 26 2e 7f 37 26 11 59 ce 23
       2.317789e-16 7.348068e-16 6.366324e-16 2.2372286e-17
000130 6c 35 51 27 51 6f f0 24 04 fe 5a 26 2e 92 d4 26
       2.9033537e-15 1.04271986e-16 7.59782e-16 1.4750077e-15
000140 93 86 00 25 c2 c3 ab 25 3e c3 e0 22 93 89 cc 25
       1.1147826e-16 2.9796422e-16 6.0922042e-18 3.5481583e-16
000150 47 3a e5 22 54 35 9c 23 56 bd 3e 23 94 87 f8 24
       6.2132278e-18 1.693614e-17 1.0340014e-17 1.07782534e-16
000160 e6 83 b2 25 0e 41 17 26 fb 2a ac 25 d8 d1 a8 26
       3.0967456e-16 5.2476815e-16 2.9866368e-16 1.171422e-15
000170 1e ea 4d 24 49 2f fc 21 7b 24 d7 24 bd ff 3e 23
       4.4650594e-17 1.70887e-18 9.330319e-17 1.0354075e-17
000180 ce 00 81 23 15 d3 cd 24 36 2b 7c 25 5c 3b b0 25
       1.3986549e-17 8.9262165e-17 2.1872156e-16 3.0571357e-16
000190 7c 14 ea 23 90 9e 3f 26 6e 3b 4c 25 50 29 2f 26
       2.5379006e-17 6.648133e-16 1.7714315e-16 6.077131e-16
0001a0 c7 b0 04 24 a2 ed cc 25 35 6f 05 22 d3 f6 55 26
       2.8772674e-17 3.5549385e-16 1.8083734e-18 7.423373e-16
0001b0 41 b1 89 24 fd d7 ed 24 05 fd 9f 25 dd 11 e5 26
       5.971456e-17 1.03148264e-16 2.7753556e-16 1.5894909e-15
0001c0 fe 46 6a 26 b6 9d 88 20 0a 10 9e 21 b6 44 a1 25
       8.128127e-16 2.314366e-19 1.0710742e-18 2.7975608e-16
0001d0 15 9a 0f 25 9c 1f 44 26 ef da da 26 6c 35 64 26
       1.2455478e-16 6.8044e-16 1.5186131e-15 7.917579e-16
0001e0 cb 09 3e 23 9e 3b e4 24 ae a6 0d 25 08 18 79 25
       1.0301994e-17 9.8980234e-17 1.2286274e-16 2.160545e-16
0001f0 66 1f 0e 26 62 44 2d 26 81 7a 49 25 70 af 34 26
       4.93087e-16 6.011411e-16 1.7475477e-16 6.2687807e-16
000200 fe dd 94 25 60 02 de 24 1a 22 15 23 5d 94 38 25
       2.5824335e-16 9.6281176e-17 8.0845275e-18 1.6009723e-16
000210 db 89 c3 24 ea 2e 41 25 1f c1 e6 25 3c f0 f7 24
       8.4801306e-17 1.6755977e-16 4.0029504e-16 1.0752615e-16
000220 cd c2 17 23 a6 ea 81 26 2f da d9 25 f2 9a 26 26
       8.226977e-18 9.014775e-16 3.7791346e-16 5.780281e-16
000230 7f 1d 93 26 25 88 41 25 37 d7 02 24 f2 02 ac 25
       1.0208169e-15 1.6786209e-16 2.837155e-17 2.983924e-16
000240 fe 05 af 24 d0 a9 04 26 8f 05 59 25 ed bd b1 26
       7.59043e-17 4.602684e-16 1.8823633e-16 1.2333322e-15
000250 86 32 c4 23 8d 07 91 26 62 fb f5 24 56 43 7f 25
       2.127176e-17 1.0063443e-15 1.0667767e-16 2.2140539e-16
000260 9d 5c cc 24 73 0b 3a 26 9f 65 1d 26 7a 42 d3 24
       8.862779e-17 6.454723e-16 5.460804e-16 9.161928e-17
000270 5e 46 99 23 e6 cd 70 26 30 40 1d 25 08 22 99 26
       1.6618095e-17 8.354577e-16 1.3639327e-16 1.0625732e-15
000280 94 ce 37 23 85 cd 9f 22 7e cb 5b 25 65 7e 0b 26
       9.9641945e-18 4.331464e-18 1.9064168e-16 4.839661e-16
000290 ac c2 05 23 bd bc 0f 25 7d d6 bd 21 f0 1d f8 24
       7.251168e-18 1.246722e-16 1.2863913e-18 1.0760357e-16
0002a0 e3 2e 6b 24 ae 2e cf 26 a1 6b a0 24 96 d7 2f 27
       5.0997217e-17 1.4376163e-15 6.957127e-17 2.4402998e-15
0002b0 a8 84 03 25 e7 ac a3 25 b1 0d 6b 26 ca 6a 14 26
       1.1407384e-16 2.8393156e-16 8.155056e-16 5.149254e-16
0002c0 58 06 2e 26 38 7a e8 24 e2 5d c2 26 77 bd 5d 23
       6.0376974e-16 1.0082101e-16 1.3486901e-15 1.2020555e-17
0002d0 24 2d a9 21 9c 5a a9 25 82 3f 04 23 35 51 b5 24
       1.1463834e-18 2.9378226e-16 7.169183e-18 7.863381e-17
0002e0 13 64 80 26 40 11 10 26 93 36 bf 26 19 9e ca 24
       8.908909e-16 4.9983414e-16 1.326808e-15 8.7871363e-17
0002f0 32 92 2d 25 56 97 15 26 1c b9 69 25 77 4c 1c 24
       1.5054891e-16 5.189986e-16 2.0272246e-16 3.3891876e-17
000300 ed 61 18 25 bc 15 33 25 3e 7d b1 25 bc 36 8c 25
       1.3217077e-16 1.5533139e-16 3.0789473e-16 2.4323218e-16
000310 40 40 fe 25 75 fe 8f 25 67 ac 17 26 f0 9a bf 25
       4.4105514e-16 2.4978972e-16 5.26223e-16 3.3238208e-16
000320 23 4c 38 26 13 ae b4 26 b1 9f ed 22 70 cb 56 24
       6.394101e-16 1.2537192e-15 6.440806e-18 4.657617e-17
000330 df 56 24 26 9c b9 a8 21 e2 f8 c8 23 a1 8c 8b 24
       5.701666e-16 1.1433253e-18 2.178945e-17 6.0519875e-17
000340 8f 9f fa 24 b4 d7 b8 25 3e 31 3f 25 3e 43 b7 26
       1.0869052e-16 3.2065078e-16 1.6583293e-16 1.2716402e-15
000350 cb d7 20 26 25 7a 77 23 3b 94 ac 22 e4 d6 b0 23
       5.5803605e-16 1.3415762e-17 4.677764e-18 1.9172968e-17
000360 3a 47 95 25 81 39 1c 26 5b 48 b6 24 75 d2 b1 26
       2.5895645e-16 5.4201305e-16 7.905249e-17 1.2338887e-15
000370 a5 cc 25 25 00 0e d9 24 8e 45 4a 26 5c 9a ea 25
       1.4380805e-16 9.4132465e-17 7.017709e-16 4.0697127e-16
000380 46 03 83 25 61 a6 42 26 08 92 c0 26 ca e7 30 25
       2.2727096e-16 6.7532756e-16 1.3362258e-15 1.53441e-16
000390 4a 22 d1 25 1f 30 e1 25 36 fa 96 25 18 e5 31 26
       3.6278956e-16 3.9063886e-16 2.6190402e-16 6.171969e-16
0003a0 db df 87 25 b9 87 f4 24 27 1a d1 26 07 6d 9e 26
       2.3570457e-16 1.06048055e-16 1.4509377e-15 1.0993004e-15
0003b0 b7 1c a8 24 25 46 19 26 c2 48 a9 25 7c 66 9c 25
       7.290703e-17 5.31776e-16 2.936613e-16 2.7131132e-16
0003c0 3f ab 17 26 37 7e 2e 23 05 c7 02 25 d9 9a 67 25
       5.262073e-16 9.459286e-18 1.1343133e-16 2.008852e-16
0003d0 d1 72 57 25 98 67 3e 25 c3 ac b1 25 44 5c a2 26
       1.8687179e-16 1.6514972e-16 3.0821673e-16 1.1266017e-15
0003e0 7d a0 09 24 e4 93 2d 26 93 87 ba 25 38 a8 c5 25
       2.984308e-17 6.022186e-16 3.2357725e-16 3.4288042e-16
0003f0 e4 e1 bd 26 2e a0 05 26 37 2d 12 26 ff c6 ac 26
       1.3175737e-15 4.636073e-16 5.0715203e-16 1.1988836e-15

exp_avg f4 [64]
000000 04 00 00 00 04 00 00 00 04 00 00 00 59 79 1e 3c
       6e-45 6e-45 6e-45 0.009672486
000010 04 00 00 00 00 00 00 00 00 00 00 00 04 00 00 00
       6e-45 0.0 0.0 6e-45
000020 ea 91 2c 3c 08 d8 8f bc 04 00 00 00 df e1 84 bc
       0.0105328355 -0.017559066 6e-45 -0.016220985
000030 90 83 20 3c 00 00 00 00 00 00 00 00 00 00 00 00
       0.009796992 0.0 0.0 0.0
000040 04 00 00 00 00 00 00 00 00 00 00 00 04 00 00 00
       6e-45 0.0 0.0 6e-45
000050 00 00 00 00 04 00 00 00 7b 56 8b bc 00 00 00 00
       0.0 6e-45 -0.01700901 0.0
000060 d4 04 87 bc 04 00 00 00 04 00 00 00 1a c2 7c bc
       -0.016481794 6e-45 6e-45 -0.015427137
000070 00 00 00 00 00 00 00 00 00 00 00 00 04 00 00 00
       0.0 0.0 0.0 6e-45
000080 00 00 00 00 e8 1c 18 3c 00 00 00 00 00 00 00 00
       0.0 0.009284236 0.0 0.0
000090 04 00 00 00 44 dd 81 bc 56 a5 8f bc 93 a0 22 3c
       6e-45 -0.015852578 -0.017534893 0.009925979
0000a0 04 00 00 00 71 4c 28 3c 00 00 00 00 00 00 00 00
       6e-45 0.010272131 0.0 0.0
0000b0 04 00 00 00 04 00 00 00 8c 8d 8f bc c2 41 7d bc
       6e-45 6e-45 -0.01752355 -0.015457572
0000c0 04 00 00 00 04 00 00 00 04 00 00 00 04 00 00 00
       6e-45 6e-45 6e-45 6e-45
0000d0 00 00 00 00 01 be 8b bc 00 00 00 00 04 00 00 00
       0.0 -0.017058374 0.0 6e-45
0000e0 00 00 00 00 00 00 00 00 04 00 00 00 00 00 00 00
       0.0 0.0 6e-45 0.0
0000f0 7e ed 95 bc 00 00 00 00 00 00 00 00 04 00 00 00
       -0.018301722 0.0 0.0 6e-45

exp_avg_sq f4 [64]
000000 4e 48 18 28 0f 98 94 28 3c a9 63 28 6a 3c 0b 3b
       8.4533736e-15 1.6497246e-14 1.2637728e-14 0.0021245726
000010 0c 68 24 26 00 00 00 00 00 00 00 00 9e a3 60 2a
       5.703994e-16 0.0 0.0 1.9951963e-13
000020 05 81 25 3b 24 24 d4 3b 73 29 31 2a 26 35 c1 3b
       0.0025253904 0.006474035 1.5735139e-13 0.0058962284
000030 87 fb 0e 3b 00 00 00 00 00 00 00 00 00 00 00 00
       0.0021817402 0.0 0.0 0.0
000040 a6 7d 93 25 00 00 00 00 00 00 00 00 c3 5b 6c 2a
       2.5585578e-16 0.0 0.0 2.0992847e-13
000050 00 00 00 00 22 9d 82 29 33 e2 d4 3b 00 00 00 00
       0.0 5.800418e-14 0.0064966916 0.0
000060 bf 2a cd 3b 0e f6 29 28 f6 24 ef 27 0c c2 ae 3b
       0.0062611992 9.434739e-15 6.63759e-15 0.005333191
000070 00 00 00 00 00 00 00 00 00 00 00 00 cf 04 8e 25
       0.0 0.0 0.0 2.4636332e-16
000080 00 00 00 00 16 46 00 3b 00 00 00 00 00 00 00 00
       0.0 0.0019573024 0.0 0.0
000090 e4 22 39 2a bc c0 b8 3b c8 96 e2 3b f9 d5 12 3b
       1.6443406e-13 0.00563821 0.006914947 0.002240537
0000a0 f3 bf 13 2a bb 60 1d 3b 00 00 00 00 00 00 00 00
       1.3122819e-13 0.0024013955 0.0 0.0
0000b0 8b cb 0c 28 d1 a8 3c 2a 69 98 e1 3b 7d fe ae 3b
       7.8156975e-15 1.6756324e-13 0.006884624 0.005340396
0000c0 5a 3b 43 28 aa eb 14 29 e7 c8 d8 23 86 61 5d 28
       1.0837544e-14 3.3067008e-14 2.3503852e-17 1.22891114e-14
0000d0 00 00 00 00 6d 5d da 3b 00 00 00 00 0b 23 15 25
       0.0 0.0066639693 0.0 1.2935563e-16
0000e0 00 00 00 00 00 00 00 00 c2 bf ad 26 00 00 00 00
       0.0 0.0 1.2056263e-15 0.0
0000f0 40 8d bf 3b 00 00 00 00 00 00 00 00 c5 05 47 25
       0.0058456957 0.0 0.0 1.7262453e-16

exp_avg f4 [1, 64]
000000 04 00 00 80 04 00 00 80 04 00 00 80 12 19 58 bc
       -6e-45 -6e-45 -6e-45 -0.013189571
000010 04 00 00 00 00 00 00 00 00 00 00 00 04 00 00 00
       6e-45 0.0 0.0 6e-45
000020 d8 84 59 bc be 93 43 bb 04 00 00 00 10 a5 b3 bb
       -0.013276301 -0.00298427 6e-45 -0.0054823235
000030 78 ad 5d bc 00 00 00 00 00 00 00 00 00 00 00 00
       -0.013530128 0.0 0.0 0.0
000040 04 00 00 00 00 00 00 00 00 00 00 00 04 00 00 00
       6e-45 0.0 0.0 6e-45
000050 00 00 00 00 04 00 00 00 32 b2 a4 bb 00 00 00 00
       0.0 6e-45 -0.0050261253 0.0
000060 08 41 84 bb 04 00 00 80 04 00 00 80 79 19 b3 bb
       -0.0040360726 -6e-45 -6e-45 -0.005465683
000070 00 00 00 00 00 00 00 00 00 00 00 00 04 00 00 80
       0.0 0.0 0.0 -6e-45
000080 00 00 00 00 52 fa 63 bc 00 00 00 00 00 00 00 00
       0.0 -0.0139146615 0.0 0.0
000090 04 00 00 00 24 66 c1 bb de 97 a0 bb 62 35 5c bc
       6e-45 -0.0059020687 -0.0049009165 -0.013440462
0000a0 04 00 00 00 ab 13 5a bc 00 00 00 00 00 00 00 00
       6e-45 -0.013310353 0.0 0.0
0000b0 04 00 00 80 04 00 00 00 35 c9 a1 bb ea 86 ac bb
       -6e-45 6e-45 -0.004937316 -0.0052651064
0000c0 04 00 00 80 04 00 00 00 04 00 00 80 04 00 00 00
       -6e-45 6e-45 -6e-45 6e-45
0000d0 00 00 00 00 b6 cd 83 bb 00 00 00 00 04 00 00 80
       0.0 -0.0040223254 0.0 -6e-45
0000e0 00 00 00 00 00 00 00 00 04 00 00 80 00 00 00 00
       0.0 0.0 -6e-45 0.0
0000f0 3a 6e 02 bb 00 00 00 00 00 00 00 00 04 00 00 80
       -0.0019902126 0.0 0.0 -6e-45

exp_avg_sq f4 [1, 64]
000000 14 79 71 26 13 23 4f 25 6a ea 77 28 7a 39 8d 3b
       8.3777763e-16 1.7966272e-16 1.3762085e-14 0.0043098303
000010 56 38 71 25 00 00 00 00 00 00 00 00 ef 77 f6 2a
       2.0922505e-16 0.0 0.0 4.37816e-13
000020 7e dc 8a 3b 9b 3d bc 39 30 fb 63 2a d9 39 27 3a
       0.0042377105 0.00035904054 2.0248798e-13 0.00063791644
000030 58 0a 92 3b 00 00 00 00 00 00 00 00 00 00 00 00
       0.0044567995 0.0 0.0 0.0
000040 b3 79 66 20 00 00 00 00 00 00 00 00 36 58 eb 2a
       1.9522025e-19 0.0 0.0 4.1805594e-13
000050 00 00 00 00 5f ab 9c 2a c5 42 10 3a 00 00 00 00
       0.0 2.783008e-13 0.00055031135 0.0
000060 8a 09 e7 39 b7 7d 8a 25 2d f2 e5 25 74 ec 2f 3a
       0.0004406686 2.4024372e-16 3.9889272e-16 0.00067109545
000070 00 00 00 00 00 00 00 00 00 00 00 00 07 0b 47 1f
       0.0 0.0 0.0 4.214901e-20
000080 00 00 00 00 09 e7 a1 3b 00 00 00 00 00 00 00 00
       0.0 0.0049408716 0.0 0.0
000090 c2 04 93 29 b0 e8 2f 3a 38 b4 0b 3a c5 60 8f 3b
       6.528937e-14 0.00067103934 0.0005329284 0.0043755495
0000a0 d8 ec b4 2a 73 28 8c 3b 00 00 00 00 00 00 00 00
       3.2138766e-13 0.004277283 0.0 0.0
0000b0 0d f9 0e 27 88 a7 b0 2a 39 24 0d 3a d7 40 1d 3a
       1.984147e-15 3.1380129e-13 0.0005384121 0.00059987366
0000c0 ce f2 94 26 e8 7e c7 2a c3 ef e2 20 b0 ec 4d 2a
       1.0335375e-15 3.543756e-13 3.844455e-19 1.8289775e-13
0000d0 00 00 00 00 3c 2f df 39 00 00 00 00 66 ef 69 26
       0.0 0.00042569067 0.0 8.116256e-16
0000e0 00 00 00 00 00 00 00 00 a9 c4 16 27 00 00 00 00
       0.0 0.0 2.0923291e-15 0.0
0000f0 cd 6e 57 39 00 00 00 00 00 00 00 00 f0 03 76 23
       0.00020545274 0.0 0.0 1.33365205e-17
