course/week3/conflearn_project/log/epoch=0-step=1600.ckpt (torch, 598398 bytes, 9 tensors)

model.0.weight f4 [64, 768]
00000000: 5389 80be 0f89 1a3d 67c6 63ba 4eba 69bd
00000010: 239e 08bd 5236 15bd 1ece 923c fa55 d03b
00000020: 9031 3dbd c3ae f63c d41f 4abd c129 b0be
00000030: ee91 1e3d 8eae a8bc e62b 4a3b 3ecf 193c
00000040: e1f7 64bb 81e3 d1bb daa7 34bb 9e40 883e
00000050: 9e0c a2bd 9309 983d 2ff2 ec3c 3d9e 4fbc
00000060: 4b93 1b3d ef21 b33b 3d45 023d 9985 13be
00000070: 524a c9bc f07c 32bd 3879 d03c 35a8 96bd
00000080: 43a7 c23d 08ba d03c c227 f2bc 0d2b 03bd
00000090: aa83 7cbc 4557 6dbd e2d7 2bbd ad49 58bc
000000a0: c6fa 73bc 7b62 fabc 5565 d8bc c840 84bc
000000b0: 660f 853d d422 22bd 41dd a6bc ca6b cb3d
000000c0: ce30 9d3c 9160 b3bd 0ddd 3dbc 7d5a 8a3d
000000d0: 8583 c43c 65a8 9c3a 4c44 67bc d713 af3d
000000e0: e52a 07bb b653 ce3c 0770 34ba 77c5 943d
000000f0: ec59 cdbd 377a 1ebb 9c71 e63d 7730 b3bd
00000100: c84c cc3d ff25 8a3b a7fa d9bb 7540 653b
00000110: fab0 a6bc aad2 6d3d 21f7 cd3c da14 48bc
00000120: fdfd 22bd ba71 743c 2fdf 25bd 12aa 763d
00000130: 8f4b 7c3c 7621 acbc 1963 07bd fbc6 12bd
00000140: 125e ad3c 2713 673d 5b08 293d a0f8 8cba
00000150: 1c66 e13b a1d4 1ebe e9ff 65bd a8f3 de3c
00000160: e6da 58bd a3de 913d 9c0e 5f3c 747c f9bc
00000170: 0c64 a9bd ec83 3b3d 16b2 18bd be21 88be
00000180: 86b7 513e 8309 b0bb 0a2b 8fbb 672a ea3c
00000190: bd5b 46bd 5c6f 153b 6bcf a43c 4b53 46bd
000001a0: 821d 563e c6db 7d3c 4572 833d ca23 e03c
000001b0: cdd4 0bbe ca60 883c d42b 39bd 5769 ec3c
000001c0: e97c 1abc b7b4 883e ad29 62bd 988c 493d
000001d0: 0010 2d3d 5a7c dfbc e545 ae3b 6c57 91b8
000001e0: 0eaa be3e c98f 823d 4344 39bd 72b1 8e3d
000001f0: 1af5 4e3c 400c 7cbc a175 ab3b 787a fd3c
00000200: 775b 463d abb4 febc 0c6b 133e ce1e 3bbc
00000210: 2f5a 53bd 93a7 01bd 73b9 4a3c 7009 243c
00000220: ca87 14be 51b4 1639 e5d1 a93c 99c5 723b
00000230: 4bb7 e7bc 896e 073d a935 323d c2b3 283b
00000240: f367 83bc 2784 dfba 0c54 84bd 8abb 41bb
00000250: 0312 95bc 0665 493c 2c33 cbbd 6edd e3bb
00000260: a7bf 2fbc 494d 44bc d274 d23c 9c68 a6bd
00000270: 58c6 31be 1fea d6bc ae1c e4bb 3550 3f3c
00000280: 591f bdbd d309 edbd ca98 08bc cd25 7b3c
00000290: f51c 1dbe f8bd f0bc a0b5 57be 2719 a6bd
000002a0: 97d6 7dbc adde c73c ca91 0d3d f889 ab3c
000002b0: 301a b7bc cb4c 5f3a 6800 8dbb e48f 5e3d
000002c0: 2e44 18bd 242e 20bd 2471 933c 7743 923c
000002d0: 28aa 763e 2726 fb3c cc0b 86be f35c 11bd
000002e0: b52d acbc 2c14 1d3d 02ee 5f3b f2c8 b23c
000002f0: 8c24 7bbc f1c2 803c 2f0d febb b732 123d
00000300: 17aa 86bc ba0e dbbc 83f7 4abc 1dc1 67bc
00000310: b7a9 fa3c 179a 3c3d c0e3 35bc 2cee 09bd
00000320: 5934 07bc b8ab d13c 769b d2bd d124 33bd
00000330: d436 2a3d 46d5 843e 99b5 82bd 953e 74bd
00000340: d896 333d 770f a13c cdb0 c1bd 1887 bc3c
00000350: 8fc2 25bd 3ab3 d83e 81c0 80bd cbb6 e0bd
00000360: e3bd d93b 7648 82bc 9115 3bbd cd62 9d3c
00000370: 8749 55bd 7040 a43d cf09 663c 6e0f efbc
00000380: 2cda b73b 1f36 3dbd 1b4a 29bc 2707 1ebd
00000390: 96a5 b5bb f54f 0abd 101a 39bd 675a 9abc
000003a0: 671b 20bd bcff 81bc 157b 4ebc 6779 59bb
000003b0: ce07 483d 05da 6b3c c56a c7bc c29c a73c
000003c0: 474f eebc 6219 6fbc bf0e 44bc 742c 583b
000003d0: 3691 f0ba c8b4 dabc d9e1 a0bd 925b 1b3d
000003e0: bfc2 08bc d949 a8bc f4d2 a9bd 8655 933c
000003f0: ba6b 0e3d 5ff3 c1bc 1523 8bbc c1f5 b4bc
-0.2510477 0.037728366 -0.0008688927 -0.05706244 -0.033353936 -0.036428757 0.01792055 0.0063579055
-0.046189845 0.03011263 -0.04934676 -0.34406856 0.03871339 -0.020591047 0.003084892 0.009387789
-0.0034937786 -0.0064052944 -0.0027565868 0.266118 -0.07912563 0.07423701 0.028924076 -0.012672004
0.037982266 0.0054666917 0.031804312 -0.14406432 -0.024571571 -0.04357618 0.025448427 -0.07356302
0.09504559 0.025479332 -0.029559974 -0.03202348 -0.0154122505 -0.057944555 -0.04195393 -0.013201159
-0.014891332 -0.030564537 -0.026415506 -0.016144171 0.06497078 -0.039583996 -0.020369174 0.099326685
0.019188311 -0.08758653 -0.011588347 0.067555405 0.023988495 0.0011952041 -0.014115404 0.08548706
-0.0020624932 0.0251864 -0.00068831485 0.07264226 -0.10026917 -0.0024181732 0.11252138 -0.08749478
0.09975582 0.0042159553 -0.0066521945 0.0034981046 -0.02034806 0.058062233 0.025142254 -0.012212003
-0.039793003 0.014919693 -0.040496048 0.060220785 0.015398874 -0.02101205 -0.03305349 -0.035834294
0.02116302 0.05641475 0.041267734 -0.0010755248 0.0068786275 -0.15510799 -0.056152258 0.027215794
-0.052943133 0.07122543 0.013614323 -0.030454852 -0.082710356 0.045780107 -0.03727921 -0.26588243
0.20480165 -0.0053722276 -0.0043691443 0.028584672 -0.048427332 0.002280197 0.020118436 -0.048419278
0.20909694 0.015494293 0.064182796 0.027360816 -0.13655396 0.016647715 -0.045207813 0.028858824
-0.009429195 0.26700374 -0.055215526 0.049206346 0.042251587 -0.027280975 0.0053183907 -6.9304224e-05
0.37239116 0.06375081 -0.045231115 0.06967439 0.012631679 -0.01538378 0.0052325283 0.030942187
0.04842707 -0.031092009 0.14396304 -0.011420919 -0.051599678 -0.03165395 0.012373316 0.010012016
-0.14504924 0.00014372288 0.020729968 0.0037044047 -0.028285643 0.0330644 0.043508206 0.002574191
-0.016040778 -0.0017052934 -0.06461343 -0.0029561245 -0.018197065 0.012292152 -0.0992187 -0.0069538867
-0.010726846 -0.011981317 0.02569047 -0.081254214 -0.17360818 -0.026234685 -0.0069614267 0.011676838
-0.09234495 -0.115741394 -0.008337209 0.015328837 -0.15343077 -0.02938746 -0.21065378 -0.08110266
-0.015493057 0.024398172 0.034562863 0.020939812 -0.022351354 0.0008518218 -0.004303027 0.054336444
-0.037174396 -0.039106503 0.017998286 0.017854435 0.24088347 0.03065784 -0.26180875 -0.035489034
-0.021017889 0.038349316 0.0034168963 0.021824334 -0.015328538 0.015717955 -0.0077530365 0.035692897
-0.016438527 -0.02674042 -0.012388113 -0.014145163 0.030598504 0.04604539 -0.011101663 -0.033674404
-0.008252227 0.025594577 -0.10283558 -0.043736283 0.041556194 0.25943965 -0.06382293 -0.059629995
0.043845028 0.019660695 -0.0945755 0.023013636 -0.04046875 0.4232424 -0.06286717 -0.10972365
0.0066449507 -0.015903693 -0.045674864 0.019212151 -0.052072074 0.08020103 0.0140404245 -0.029182162
0.005610725 -0.046194192 -0.0103326095 -0.03858104 -0.005543421 -0.03376766 -0.04519087 -0.018841935
-0.039088633 -0.015869014 -0.012602587 -0.0033183934 0.048835568 0.014395242 -0.024342904 0.02046049
-0.029090537 -0.014593454 -0.011966406 0.003298548 -0.0018353823 -0.026697531 -0.07855577 0.037929125
-0.008347212 -0.020543026 -0.08292189 0.017985117 0.034770705 -0.023675619 -0.016984502 -0.02208984

model.0.bias f4 [64]
00000000: 2c4d cf3c 57ee f4bc 83f8 f23b 926d e2bb
00000010: e5e1 ea3c 4ffa 81bc 5d54 5fbc 30db 0f3c
00000020: c63d fabc 294e 9a3c df7f dbbb d2b4 173d
00000030: 5d51 f53c e201 c7bc fc25 003d f9cf 373c
00000040: 4f42 e6bc ff84 063d d630 133b f49e 8f3c
00000050: b4d2 12bd 312c e2bc e5c1 dc3b 1398 db3c
00000060: 8578 8a3c 06cf 5a3c 7244 dcbc dd27 e5bc
00000070: ed39 aa3c 0de2 0f3d d3e7 bf3c 4f77 903c
00000080: 8eea 02bd 4398 07bc 3559 89bb b562 5fbc
00000090: 8a82 0b3a 8665 6bbc 3ded 06bd 97ec 90bc
000000a0: 8e8e 923c 5cb3 ce3c 8d0e f9bb d106 0cbd
000000b0: e403 0f3d a05e 2a3b 79fa 933c 72e9 d7bc
000000c0: 05bf 1a3d 6d6c 833c 6f65 8b3c 110e 9abc
000000d0: c922 af3b 4516 8b3c d1a3 5abc 4144 a73a
000000e0: f138 d33c 4417 0abc ab65 82bc c87e 383c
000000f0: d48a 8fbc 8dc2 d93c fd35 9bbb 24a7 c8bc
0.025305353 -0.029898806 0.007414879 -0.0069100345 0.028672168 -0.015866427 -0.013630954 0.008780286
-0.030547034 0.018836098 -0.006698593 0.037037678 0.029946024 -0.02429289 0.031286225 0.011219018
-0.02810779 0.03284168 0.0022459528 0.01753185 -0.035845473 -0.027608963 0.006736981 0.026805913
0.016903171 0.013355022 -0.026888106 -0.02797311 0.020779574 0.03512769 0.023425972 0.017635016
-0.03196197 -0.008276048 -0.0041915425 -0.013634373 0.0005321881 -0.014367467 -0.03294109 -0.01769094
0.017890241 0.02523201 -0.0076006115 -0.034186188 0.03491582 0.0025996342 0.01806377 -0.026356433
0.037779827 0.016042912 0.01701614 -0.018805536 0.005344723 0.016978392 -0.013344721 0.001276143
0.025783988 -0.0084283985 -0.01591762 0.011260696 -0.017522253 0.026582027 -0.0047366605 -0.024493761

model.2.weight f4 [1, 64]
00000000: 7a4c 87be 86c1 98bd 26e1 95be 401c 8cbc
00000010: 2464 8fbd 865d 103c 90b8 843d 3896 d0bc
00000020: 8290 d33d 3f0d 4b3d 64ea debd 10df 7abe
00000030: 40f4 913d 80f2 533b 5618 b93d fb94 f13d
00000040: 3cc5 1c3d 3456 953c 7037 e9bd f465 54bd
00000050: e0e1 94bd 72a3 8b3d 241a 7dbd 21cb 913e
00000060: 1b4d b3bc 165c 6e3e 2473 3c3d 4ed6 a83e
00000070: b00a af3e 30b0 b03e 5024 333c f56b a03c
00000080: d058 083d 017c 963e 748f 14bd 16c7 a0ba
00000090: 048d a43e 30af 993d 944e 2abd 5333 f6bd
000000a0: c0b3 653d b583 67be 0138 ed3d 56ce a63d
000000b0: d19a 84be 1c14 cc3d 810d ec3d a180 a43d
000000c0: 8e78 4dbe 566d dd3d b0df cb3c a052 aa3b
000000d0: 889e 0e3d 881b 88be c4c4 8fbd 350d 79bd
000000e0: 84dc 1f3d 05ac 6cbe dc0a be3a 8faa 973d
000000f0: 6863 333d e3ee 95be 5c8e 143d 9232 853d
-0.26425534 -0.07458787 -0.29273337 -0.017103314 -0.07001522 0.00881136 0.06480515 -0.025462255
0.10330297 0.04957318 -0.1088455 -0.24499154 0.07126665 0.0032340586 0.09037845 0.11795994
0.038274035 0.018229581 -0.11387527 -0.051855043 -0.07269645 0.06818284 -0.061792508 0.28475288
-0.021887353 0.23277315 0.046008244 0.32976002 0.3418784 0.3450942 0.010933951 0.019582728
0.033287823 0.29391482 -0.03626962 -0.0012266363 0.32138836 0.075041175 -0.041578844 -0.12021508
0.056079626 -0.22608836 0.115829475 0.08144824 -0.25899366 0.09964773 0.11526013 0.080323465
-0.20065519 0.1081187 0.024886936 0.005197838 0.034819156 -0.26583505 -0.07019952 -0.06080361
0.03902866 -0.23112495 0.0014499086 0.07405578 0.043795973 -0.2928382 0.036268577 0.06503786

exp_avg f4 [64, 768]
00000000: 15cf 2439 d132 e538 973a 0939 a9a4 d938
00000010: 319d 9535 b918 d2b8 da1b 9eb9 0ca2 e638
00000020: 2239 2039 59f1 ef38 cc1e e438 f876 3d39
00000030: 794c ccb8 0a44 b3b8 d519 3fb8 cca2 0fba
00000040: ff19 6b37 3b33 3a3a 453d a238 d268 52b9
00000050: ab88 4f3a bedf 95b9 d5cf 13ba 89b2 74b9
00000060: ff5e 9bb9 0793 4db8 d6c9 7ab9 a916 4e39
00000070: 76c5 9eb9 769d 06b9 e51b 9db9 9cd6 c038
00000080: ff2b d4b9 efb5 a0b9 aa59 b839 8fe2 26b7
00000090: e06a cf39 c686 89b8 e000 99b8 7f15 e139
000000a0: cd26 2e38 f62e 80b8 f98f a1b9 051e 3039
000000b0: 6c72 bbb8 e5cc adb9 6a3a 01ba 165f 90b8
000000c0: 8e88 8a39 2b72 aa39 729b 8639 dd88 6dba
000000d0: 78ba 81b9 bd15 ecb8 303b 2ab9 ea7b 64b9
000000e0: ffc8 8339 9fe0 a5b9 8799 5c38 661d 0d37
000000f0: ad84 0a3a e0f7 c638 9ba3 00b9 91e4 ae39
00000100: 556b 93b8 8bf5 83b6 f53b 1eb7 6086 e337
00000110: 2503 6c39 cd6a 8eb9 7dfc 22b7 1c8b 47b9
00000120: 79a3 07b9 5bf1 f039 3bee 043a 5653 41b9
00000130: 3363 1d3a 47c3 b138 31b8 b1b9 3596 deb9
00000140: eb16 dc38 4b56 efb9 efc2 c9b8 5806 7bb9
00000150: 3b25 e837 42b8 b639 8b8e 3839 bba1 8138
00000160: c403 24b9 7c2a 32ba bc18 5839 7006 cf39
00000170: 0274 6738 b9a1 3e36 919a 8d39 7871 e039
00000180: 95a5 56b9 5884 ba38 f101 9d39 cbce 80b7
00000190: 3ea5 5039 c8b1 ed38 1f40 8139 a3fe 19b9
000001a0: 5d36 0eb9 402b 9739 3f42 9338 648f 01ba
000001b0: aad1 b037 d8b8 3d39 1b5c 8639 c7d4 bdb9
000001c0: 2988 68b7 bc04 bbb9 68bd 1ab8 9df3 08ba
000001d0: 88ca d6b9 65bd 383a 55ca 01ba e5a2 2539
000001e0: 55fd 8cb9 6a37 96b8 a7ac b438 c99b e2b9
000001f0: dadd a9b6 64f4 4ab9 87f2 32b9 8a3b abb9
00000200: 5467 a9b9 9d0a 8ab8 188e e9b8 eed8 87b8
00000210: 7831 b639 4236 76b8 defa 8fb9 3fc1 93b9
00000220: 4b9d 2738 89a8 c439 ff0e 9239 86a5 64b9
00000230: 848c 76b8 7b6d d8b9 9e15 c4b8 e190 8cb8
00000240: 814e 9c35 76e7 99b9 a224 b338 aa94 073a
00000250: e944 3c39 42ca a5b9 d7c3 9c39 7271 0fb9
00000260: c856 7039 ca37 bc39 cf71 1739 f0c5 aa39
00000270: d17c 2739 11fd 1a39 e152 1f39 c262 00ba
00000280: bc81 1239 c456 6037 165b a639 6cb9 1d39
00000290: 7952 6c39 6e64 0d39 3aa1 3939 59b6 9f39
000002a0: 87dd 6639 0386 af39 e878 08b9 ca6e 313a
000002b0: 709e 1739 bd92 8738 da5d b639 7019 c0b9
000002c0: 1b4e 193a 9574 2a39 f1f8 a9b9 e89d aab8
000002d0: 441c a5b8 fac5 4e39 0a9e 8539 4349 2e39
000002e0: 8b4e 73b9 0f5c c1b9 5d98 a439 69de 94b9
000002f0: 5456 8db8 b274 e6b9 f999 bdb7 e3a1 0538
00000300: 4db7 ab39 6f16 3ab9 a52b 043a 82a3 6db9
00000310: 5ea1 8a39 cdc9 ceb9 e086 8639 40b8 c639
00000320: 7186 63b9 07fd df39 d6a9 5839 f44c a9b8
00000330: 88a6 bdb9 1701 beb8 9368 d138 bbdb 8439
00000340: ae72 b7b9 a840 88b9 6e96 0d39 ea4e da39
00000350: 2196 40b8 70d5 b5b9 cde8 f933 9003 8439
00000360: 4b24 48b9 67a0 3eb9 22be b6b8 3f39 a239
00000370: 0f9f 8939 ff8f c3b9 52a2 f5b8 c992 ce39
00000380: 8b5e 00b9 308d 063a d28e ad39 af6a 9539
00000390: 9be0 5fb9 e084 9cb8 2d5f 2439 5296 a339
000003a0: 8bc2 bab7 11dc 3939 5b0e 243a aa93 9a39
000003b0: 7343 5d38 d301 52b9 7183 3b39 df9a 1cba
000003c0: 84a0 b2b9 744b 4236 1f43 00b9 c874 66b9
000003d0: 0bb0 00b9 2f8d 5039 8430 0538 8779 3c39
000003e0: b0d5 0239 e2d5 7139 dcc4 1f3a bd1b e135
000003f0: 0e2e 23ba c4e1 6739 f211 2cb9 4f00 04ba
0.00015717403 0.00010929036 0.00013087165 0.00010378037 1.1147114e-06 -0.00010018185 -0.0003015686 0.00010997438
0.00015280073 0.000114413626 0.000108776236 0.00018068764 -9.741722e-05 -8.5480584e-05 -4.5562007e-05 -0.0005479276
1.4013144e-05 0.0007102971 7.736174e-05 -0.00020066209 0.00079167885 -0.00028586196 -0.00056385744 -0.00023336163
-0.0002963468 -4.901274e-05 -0.00023917048 0.00019654132 -0.00030283228 -0.00012837895 -0.00029966157 9.1952475e-05
-0.0004046857 -0.0003065313 0.0003516202 -9.947121e-06 0.00039561745 -6.5577726e-05 -7.2957715e-05 0.0004293136
4.152097e-05 -6.112263e-05 -0.0003081558 0.00016795851 -8.9381676e-05 -0.0003314979 -0.0004929664 -6.884166e-05
0.00026423152 0.00032509989 0.00025674287 -0.0009061227 -0.00024743727 -0.00011257406 -0.00016234512 -0.00021789936
0.0002513602 -0.00031638608 5.259507e-05 8.4111e-06 0.00052840525 9.487546e-05 -0.00012267979 0.0003335816
-7.0294984e-05 -3.932689e-06 -9.431494e-06 2.7123082e-05 0.00022507885 -0.00027163923 -9.7147395e-06 -0.00019029941
-0.00012935502 0.0004595619 0.00050708995 -0.0001843696 0.00060038565 8.476391e-05 -0.00033897304 -0.00042455053
0.00010494686 -0.00045649926 -9.620736e-05 -0.00023939589 2.7673892e-05 0.00034851028 0.00017600709 6.181324e-05
-0.00015641662 -0.0006796492 0.0002060858 0.00039486913 5.5182732e-05 2.8406341e-06 0.00027008777 0.0004280915
-0.00020470314 8.893822e-05 0.0002994682 -1.5355085e-05 0.00019897983 0.00011334155 0.0002465257 -0.00014686077
-0.00013562427 0.00028833188 7.0218455e-05 -0.00049423263 2.1078467e-05 0.00018093304 0.00025627096 -0.0003620742
-1.385998e-05 -0.00035670947 -3.689286e-05 -0.00052242895 -0.00040968158 0.0007047265 -0.00049511093 0.00015796309
-0.00026891628 -7.162879e-05 8.615228e-05 -0.00043222148 -5.0624194e-06 -0.00019355264 -0.00017065751 -0.00032660022
-0.00032311177 -6.58233e-05 -0.00011136773 -6.477708e-05 0.00034750602 -5.8701502e-05 -0.00027461996 -0.00028182004
3.9962393e-05 0.00037509602 0.00027858463 -0.00021805437 -5.8781836e-05 -0.000412803 -9.350035e-05 -6.702706e-05
1.1645753e-06 -0.00029354886 8.5422085e-05 0.0005171994 0.00017954748 -0.00031621946 0.0002990055 -0.00013679804
0.00022920512 0.0003589972 0.00014442879 0.00032572402 0.00015972859 0.00014780859 0.00015194296 -0.00048975286
0.00013971975 1.3371642e-05 0.00031729852 0.00015041762 0.00022537437 0.00013484221 0.00017703036 0.00030462703
0.00022017035 0.00033478448 -0.00013015012 0.0006768523 0.00014459505 6.464634e-05 0.0003478367 -0.00036640046
0.00058481254 0.00016255894 -0.00032419668 -8.135644e-05 -7.873078e-05 0.00019719443 0.00025485485 0.00016621225
-0.00023203545 -0.00036880418 0.00031394037 -0.00028394468 -6.739484e-05 -0.00043955963 -2.2602255e-05 3.186044e-05
0.0003275223 -0.000177467 0.0005041904 -0.00022662993 0.0002644164 -0.00039441735 0.0002565896 0.0003790278
-0.0002169849 0.00042722395 0.00020662634 -8.0728816e-05 -0.00036172965 -9.060109e-05 9.985375e-05 0.00025340714
-0.00034989923 -0.00025988114 0.00013502847 0.00041638996 -4.5916186e-05 -0.00034682034 1.1637312e-07 0.00025179656
-0.00019087007 -0.00018179567 -8.713851e-05 0.000309417 0.00026249184 -0.00037300584 -0.00011712745 0.00039400745
-0.00012242251 0.0005132733 0.0003310354 0.0002849898 -0.0002135061 -7.4634096e-05 0.00015675715 0.0003120178
-2.2263519e-05 0.00017724956 0.00062582426 0.00029483187 5.2753323e-05 -0.0002002784 0.00017882675 -0.00059740053
-0.000340704 2.8952172e-06 -0.00012232036 -0.00021978014 -0.00012272612 0.00019889021 3.1754855e-05 0.0001797435
0.00012477371 0.00023063229 0.0006094703 1.6771879e-06 -0.0006224819 0.00022113981 -0.00016409883 -0.00050354464

exp_avg_sq f4 [64, 768]
00000000: 8c2d 3033 a334 2037 3f1f 3137 8848 c035
00000010: dd09 8636 2ef4 2737 1b27 7037 0fd3 7a35
00000020: 2c02 c035 d30d cf36 a80c 8037 8a37 2133
00000030: 9703 0036 54aa 5836 f8c7 b736 e5f8 5838
00000040: 414b 2d37 b607 5738 54df 3135 4f99 fb33
00000050: bae7 7c37 5262 9935 2855 5238 5e4f c837
00000060: baec 6236 c03d 1e35 8382 b836 2b66 8133
00000070: 9599 ab36 717a 4f37 2909 aa37 9f2e b334
00000080: 8570 2b36 16af 7037 9af9 5f37 72ae 8235
00000090: 5bdc be37 f671 a633 27e6 8937 135b 2837
000000a0: 058c ea35 3ef8 ff36 ed4d 1237 45a8 a736
000000b0: 791a 2236 3501 1a38 30ae 7437 f847 2334
000000c0: bac2 8536 fd8d 0536 9fa7 d437 17db ea37
000000d0: f0cd b037 7498 0737 32a9 d834 bbbd 1c35
000000e0: 5ce1 5a36 12c3 7737 a343 6b35 7241 0336
000000f0: 4272 5736 e222 2037 812f 7233 5791 1235
00000100: b6c9 0034 2058 9d36 ffee 1a36 889d 9c36
00000110: c023 9d36 50a6 3335 f1ae 0c36 4775 9236
00000120: 8446 eb36 d3e2 b237 916a 9737 af05 4335
00000130: ba91 a838 c2c3 3136 bf94 b337 3e3e 2c38
00000140: 8e6b d335 0573 3037 ccbf 6f34 db44 3537
00000150: c36d 3434 0583 0835 b97c ac34 1397 8f36
00000160: 325a e536 5afe 6e37 c5b6 1637 c020 1638
00000170: b4ee be35 74fb 9133 7c3c 3436 a5e5 7034
00000180: 4431 bb34 608a da35 84a8 e636 ff85 f136
00000190: e1d7 8535 f654 6c37 1320 a736 0832 7637
000001a0: d962 af33 4b0b 1b37 ab26 2033 948b ab37
000001b0: 1577 9d35 3218 2736 4456 f236 db0e 3938
000001c0: 74af cd37 7ffb 9034 5c38 1334 8247 dc36
000001d0: e4a1 9436 15d5 9c37 95c2 3338 c286 aa37
000001e0: 2f10 8a33 04bf 0d36 b6a4 7736 1c32 1037
000001f0: e965 3b37 b929 8937 6a37 8736 90b9 9837
00000200: 06a3 f336 4280 2d36 eec7 8034 67c0 5136
00000210: d088 4c36 0392 aa36 3e28 4f37 e242 3936
00000220: 4a4e b733 00b6 d237 8e0b 4537 e7e3 8837
00000230: d58e d137 bc7b 9b36 a1a0 2835 c61d 0d37
00000240: c3fd 0f36 312f 4437 6984 7936 9e54 1138
00000250: fe9e 9335 e40b ee37 23ab fe35 8f03 9f36
00000260: aff9 5e36 0dd5 9e37 2fc1 8437 948b 2f36
00000270: 1cbc 5034 9c19 c437 d337 4f36 07d1 fb37
00000280: c04c 5835 8500 5d34 0dca e836 0c89 3737
00000290: 0511 9c34 2738 8d36 0adf c733 4ad7 1f36
000002a0: 64e6 8935 df89 3638 e8ba 6736 d12b 8938
000002b0: 0252 4b36 f428 1b37 97bf c637 6458 8837
000002c0: 943e 9737 6ced 2f36 90a1 1538 3135 b234
000002d0: 58d3 e632 6621 1e37 9474 5234 4bec ef35
000002e0: 4b18 b237 b3fc 8437 d35d 1838 18a0 2336
000002f0: ab9c 8136 0797 8c37 2077 8636 2daa 8235
00000300: 9aad 8136 6d75 7c36 090c 2537 ef1d ed36
00000310: 32c0 3637 5d98 ea36 bbe4 6737 b6e1 2a37
00000320: 1ae2 b537 ab69 1d38 71e7 e734 65b8 a935
00000330: 41e1 7c37 fb0b 8733 3b10 3d35 fdc6 1b36
00000340: d24d 8836 6557 0237 c138 8136 576a 1838
00000350: cf83 9837 2ecb 1134 d336 e134 433c 6635
00000360: 3791 f736 3b67 6337 5163 1336 9e87 0838
00000370: c2ae a136 567d 9f36 9d27 9f37 a336 6237
00000380: 5f36 e436 55d7 af37 eadd 2138 ac0d 4b36
00000390: 51d0 3737 3352 2337 89e6 c736 a78c 9637
000003a0: b081 c236 d70f 9e36 5e34 3038 d626 f937
000003b0: 26c4 3836 2e88 8937 2830 e636 80c2 d636
000003c0: 7920 7637 87bb 4334 148e 6536 a0b0 cb36
000003d0: ba60 ab36 1aa2 6d36 aa5a f836 5d7c f337
000003e0: bc0b fb34 1fa1 9d37 d663 2137 444e 2237
000003f0: b682 2438 d9ba 6a37 23f3 4e37 9b77 1238
4.1019618e-08 9.548999e-06 1.0557297e-05 1.4326224e-06 3.9946594e-06 1.0010828e-05 1.431422e-05 9.343939e-07
1.4305747e-06 6.17069e-06 1.5264683e-05 3.7536246e-08 1.9075576e-06 3.2285652e-06 5.4771044e-06 5.1730214e-05
1.0329125e-05 5.1267176e-05 6.6262623e-07 1.1715985e-07 1.50743235e-05 1.1428003e-06 5.014721e-05 2.3878816e-05
3.3814417e-06 5.8949445e-07 5.498821e-06 6.025615e-08 5.1140764e-06 1.236667e-05 2.0269845e-05 3.337527e-07
2.554648e-06 1.434588e-05 1.3349951e-05 9.736525e-07 2.2752376e-05 7.750707e-08 1.6438846e-05 1.0034785e-05
1.747511e-06 7.6284914e-06 8.720422e-06 4.996577e-06 2.415529e-06 3.6717585e-05 1.45840895e-05 1.520674e-07
3.986378e-06 1.9901192e-06 2.5350424e-05 2.7996995e-05 2.1076732e-05 8.082123e-06 4.035624e-07 5.839062e-07
3.2615708e-06 1.4767766e-05 8.7642746e-07 1.9558615e-06 3.2104003e-06 9.544865e-06 5.638822e-08 5.4600736e-07
1.1994311e-07 4.6892237e-06 2.3086902e-06 4.6675013e-06 4.6831265e-06 6.6924713e-07 2.0963455e-06 4.364792e-06
7.011755e-06 2.1324877e-05 1.8050227e-05 7.265143e-07 8.038008e-05 2.6489001e-06 2.1407728e-05 4.1065963e-05
1.5752028e-06 1.0517198e-05 2.2328385e-07 1.0804472e-05 1.6803737e-07 5.0854607e-07 3.2128244e-07 4.2793195e-06
6.835232e-06 1.4245126e-05 8.983251e-06 3.5793288e-05 1.4225575e-06 6.797828e-08 2.6857297e-06 2.2435286e-07
3.486731e-07 1.6282538e-06 6.874152e-06 7.197959e-06 9.972101e-07 1.4086478e-05 4.9807218e-06 1.4674391e-05
8.167053e-08 9.241349e-06 3.728807e-08 2.0449785e-05 1.1732069e-06 2.4899023e-06 7.2222047e-06 4.4121272e-05
2.4519606e-05 2.7005078e-07 1.3710945e-07 6.5648355e-06 4.4295903e-06 1.8695873e-05 4.2858144e-05 2.032833e-05
6.4290695e-08 2.1121823e-06 3.6901743e-06 8.594736e-06 1.1169796e-05 1.6351101e-05 4.0297646e-06 1.8206221e-05
7.2609428e-06 2.5853665e-06 2.3987326e-07 3.125542e-06 3.0478004e-06 5.083393e-06 1.2347531e-05 2.760608e-06
8.535842e-08 2.5118701e-05 1.1744805e-05 1.6318589e-05 2.4981253e-05 4.6337645e-06 6.281862e-07 8.411187e-06
2.145637e-06 1.1693498e-05 3.7180964e-06 3.46495e-05 1.0998626e-06 2.8377348e-05 1.8974282e-06 4.7389835e-06
3.3225913e-06 1.8934277e-05 1.5825584e-05 2.6158277e-06 1.9439943e-07 2.3376946e-05 3.0877898e-06 3.0018868e-05
8.0577956e-07 2.0582418e-07 6.9376606e-06 1.0939559e-05 2.9069648e-07 4.2086644e-06 9.30723e-08 2.381816e-06
1.0274348e-06 4.3520584e-05 3.4530476e-06 6.5408305e-05 3.0297092e-06 9.248255e-06 2.3692655e-05 1.6253623e-05
1.8029743e-05 2.621523e-06 3.5674835e-05 3.3193785e-07 2.6871632e-08 9.42531e-06 1.9600185e-07 1.7875658e-06
2.1230566e-05 1.5853298e-05 3.6327005e-05 2.438208e-06 3.862738e-06 1.6759628e-05 4.007379e-06 9.735282e-07
3.8647095e-06 3.7619277e-06 9.8375685e-06 7.066635e-06 1.0892794e-05 6.991481e-06 1.3821928e-05 1.0185342e-05
2.1682168e-05 3.7530128e-05 4.31955e-07 1.2645147e-06 1.50728165e-05 6.2886066e-08 7.0431605e-07 2.3212626e-06
4.0621753e-06 7.768952e-06 3.8511066e-06 3.633866e-05 1.818119e-05 1.3578094e-07 4.1949406e-07 8.576937e-07
7.378079e-06 1.355429e-05 2.1962517e-06 3.255123e-05 4.8185184e-06 4.7531603e-06 1.8972723e-05 1.3483371e-05
6.801259e-06 2.0961897e-05 3.8592065e-05 3.0257315e-06 1.0956152e-05 9.734696e-06 5.9575e-06 1.794689e-05
5.796748e-06 4.710611e-06 4.201044e-05 2.9701197e-05 2.753231e-06 1.6395086e-05 6.8601403e-06 6.4003398e-06
1.4670303e-05 1.8229012e-07 3.420636e-06 6.0704333e-06 5.1074576e-06 3.5410108e-06 7.4015306e-06 2.9025769e-05
4.676093e-07 1.8790886e-05 9.619593e-06 9.674175e-06 3.922238e-05 1.3990991e-05 1.23351665e-05 3.4920504e-05

exp_avg f4 [64]
00000000: a171 9fba 0000 0000 dbed b1ba 0000 0000
00000010: 0000 0000 0400 0000 0000 0000 0000 0000
00000020: 0000 0000 0400 0000 0400 0000 1eca 94ba
00000030: 0000 0000 0000 0000 0000 0000 0400 0000
00000040: 0400 0000 0400 0000 0000 0000 0000 0000
00000050: 0000 0000 0000 0000 0000 0000 981d a03a
00000060: 0400 0000 54ed 823a 0000 0000 26d5 c73a
00000070: 8652 bc3a d3e8 bd3a 0000 0000 0400 0000
00000080: 0400 0000 f53e a53a 0000 0000 0400 0000
00000090: b9ab b43a 0400 0000 0000 0000 0400 0000
000000a0: 0000 0000 9244 89ba 0400 0000 0000 0000
000000b0: a740 9cba 0000 0000 0400 0000 0400 0000
000000c0: e98b 73ba 0400 0000 0000 0000 0000 0000
000000d0: 0000 0000 e87e a1ba 0000 0000 0400 0000
000000e0: 0400 0000 6d63 8bba 0400 0000 0400 0000
000000f0: 0000 0000 abb4 b0ba 0400 0000 0000 0000
-0.0012164601 0.0 -0.0013574915 0.0 0.0 6e-45 0.0 0.0
0.0 6e-45 6e-45 -0.001135174 0.0 0.0 0.0 6e-45
6e-45 6e-45 0.0 0.0 0.0 0.0 0.0 0.0012215851
6e-45 0.0009988942 0.0 0.0015246018 0.0014367856 0.0014488943 0.0 6e-45
6e-45 0.0012607264 0.0 6e-45 0.0013784087 6e-45 0.0 6e-45
0.0 -0.0010472706 6e-45 0.0 -0.0011921123 0.0 6e-45 6e-45
-0.00092905626 6e-45 0.0 0.0 0.0 -0.0012321146 0.0 6e-45
6e-45 -0.001063449 6e-45 6e-45 0.0 -0.0013481578 6e-45 0.0

exp_avg_sq f4 [64]
00000000: 6d93 6539 0000 0000 3c5e 8d39 0000 0000
00000010: 0000 0000 f9d6 a331 0000 0000 0000 0000
00000020: 0000 0000 0483 ed33 d7c9 0c31 11f2 2339
00000030: 0000 0000 0000 0000 0000 0000 8cff 2235
00000040: 9a12 b92e f321 8432 0000 0000 0000 0000
00000050: 0000 0000 0000 0000 0000 0000 98f1 6039
00000060: b87a b131 cc38 f238 0000 0000 e036 a939
00000070: d24f b939 6803 be39 0000 0000 343e 2732
00000080: 065d ec32 b793 6e39 0000 0000 bc2e bc2e
00000090: 24f4 9939 3015 6f34 0000 0000 b74c 1034
000000a0: 0000 0000 3d32 0439 4472 0a33 0000 0000
000000b0: a956 5239 0000 0000 5c56 f634 fb0c 6e34
000000c0: cc93 c538 b481 fb34 0000 0000 0000 0000
000000d0: 0000 0000 4762 4b39 0000 0000 d1fe 0333
000000e0: 2d08 9233 0e03 2139 25ce 0030 bfbb 4d34
000000f0: 0000 0000 a9ca 8539 ed5b 7b33 0000 0000
0.00021894062 0.0 0.00026963826 0.0 0.0 4.768364e-09 0.0 0.0
0.0 1.1060004e-07 2.0487414e-09 0.00015635068 0.0 0.0 0.0 6.072157e-07
8.41613e-11 1.538226e-08 0.0 0.0 0.0 0.0 0.0 0.00021452305
5.1653295e-09 0.000115500385 0.0 0.00032275077 0.0003534542 0.00036242162 0.0 9.734823e-09
2.7516318e-08 0.00022752477 0.0 8.557552e-11 0.00029364333 2.2266318e-07 0.0 1.3438954e-07
0.0 0.00012607216 3.2234553e-08 0.0 0.00020059444 0.0 4.5883905e-07 2.21702e-07
9.421221e-05 4.6846765e-07 0.0 0.0 0.0 0.000193962 0.0 3.073257e-08
6.800142e-08 0.00015355294 4.685908e-10 1.9160414e-07 0.0 0.0002551873 5.8524098e-08 0.0

exp_avg f4 [1, 64]
00000000: 314a b83c 0000 0000 c480 bb3c 0000 0000
00000010: 0000 0000 0400 0000 0000 0000 0000 0000
00000020: 0000 0000 0400 0000 0400 0080 7474 cb3c
00000030: 0000 0000 0000 0000 0000 0000 0400 0000
00000040: 0400 0000 0400 0000 0000 0000 0000 0000
00000050: 0000 0000 0000 0000 0000 0000 5bc1 aebc
00000060: 0400 0080 8a1a ddbc 0000 0000 3f20 aebc
00000070: 34f2 a7bc e952 abbc 0000 0000 0400 0000
00000080: 0400 0000 7ceb c1bc 0000 0000 0400 0080
00000090: 76f8 b4bc 0400 0000 0000 0000 0400 0080
000000a0: 0000 0000 cb79 ce3c 0400 0000 0000 0000
000000b0: 9baf be3c 0000 0000 0400 0000 0400 0000
000000c0: 923e ce3c 0400 0000 0000 0000 0000 0000
000000d0: 0000 0000 63c5 c63c 0000 0000 0400 0080
000000e0: 0400 0000 42d1 b93c 0400 0000 0400 0000
000000f0: 0000 0000 bfc2 c63c 0400 0000 0000 0000
0.022496315 0.0 0.022888549 0.0 0.0 6e-45 0.0 0.0
0.0 6e-45 -6e-45 0.024835803 0.0 0.0 0.0 6e-45
6e-45 6e-45 0.0 0.0 0.0 0.0 0.0 -0.021332433
-6e-45 -0.026990194 0.0 -0.02125561 -0.020501234 -0.020913558 0.0 6e-45
6e-45 -0.023671858 0.0 -6e-45 -0.022091132 6e-45 0.0 -6e-45
0.0 0.02520456 6e-45 0.0 0.023277095 0.0 6e-45 6e-45
0.02517632 6e-45 0.0 0.0 0.0 0.024264043 0.0 -6e-45
6e-45 0.02268279 6e-45 6e-45 0.0 0.024262784 6e-45 0.0

exp_avg_sq f4 [1, 64]
00000000: c8ec 6b3a 0000 0000 c2fa 573a 0000 0000
00000010: 0000 0000 f133 5c35 0000 0000 0000 0000
00000020: 0000 0000 c7e8 3f35 bd46 062d a36a 653a
00000030: 0000 0000 0000 0000 0000 0000 a81e 5135
00000040: 3371 352b eb91 e534 0000 0000 0000 0000
00000050: 0000 0000 0000 0000 0000 0000 8bc2 2c3a
00000060: 5848 1033 b2bd 883a 0000 0000 ae07 313a
00000070: 4e30 1b3a ca41 203a 0000 0000 5fd2 5c33
00000080: 92b5 5133 d70a 503a 0000 0000 caf7 5e32
00000090: d241 343a 0055 6434 0000 0000 96c3 b530
000000a0: 0000 0000 5775 7c3a 9f7b 842f 0000 0000
000000b0: abed 6e3a 0000 0000 d0fd 6d34 9391 dc33
000000c0: a35d 813a b6e3 f734 0000 0000 0000 0000
000000d0: 0000 0000 6dc9 523a 0000 0000 4f2a b130
000000e0: 3648 4c35 aedc 783a 5b95 8f34 3d69 7b34
000000f0: 0000 0000 9a5a 613a a55c 4c35 0000 0000
0.0008999822 0.0 0.0008238965 0.0 0.0 8.203197e-07 0.0 0.0
0.0 7.149178e-07 7.632725e-12 0.0008751547 0.0 0.0 0.0 7.790318e-07
6.4461213e-13 4.2760743e-07 0.0 0.0 0.0 0.0 0.0 0.00065902685
3.359341e-08 0.001043251 0.0 0.00067531585 0.0005919979 0.0006113319 0.0 5.1414073e-08
4.882674e-08 0.00079361856 0.0 1.2978441e-08 0.0006876263 2.1265078e-07 0.0 1.3225072e-09
0.0 0.0009630522 2.4098498e-10 0.0 0.0009114395 0.0 2.2164681e-07 1.0271028e-07
0.0009869825 4.6173017e-07 0.0 0.0 0.0 0.0008040879 0.0 1.289047e-09
7.6101e-07 0.0009493333 2.6744496e-07 2.3414482e-07 0.0 0.00085965695 7.613074e-07 0.0
