course/week3/conflearn_project/log/epoch=9-step=16000.ckpt (torch, 598398 bytes, 9 tensors)

model.0.weight f4 [64, 768]
000000 8d b5 11 bc ef 22 4e bb 0c df 00 3d 3d 03 56 3c
       -0.008893383 -0.0031453928 0.031462714 0.0130622955
000010 5e ec a4 3c ca 73 b8 3c c7 ae 04 3d 20 93 05 3c
       0.02013224 0.02251615 0.032393243 0.008152753
000020 08 2a ae bc 55 44 f9 bc c9 da ac 3b a1 c2 e7 bc
       -0.021260276 -0.030428091 0.0052751047 -0.028291048
000030 5a f7 54 3c f1 81 05 3d 1b 9e 03 3d 56 a6 bb 39
       0.012998426 0.032594625 0.032133203 0.0003579135
000040 4e 7a 50 bc 0c 31 d4 bc be 19 13 bd 2e 59 e2 bc
       -0.012724472 -0.025902294 -0.03591322 -0.027630415
000050 95 ba 03 3d 0d 11 80 bc bf 92 40 bc df 7b 3f bb
       0.03216036 -0.01563313 -0.011753737 -0.002921812
000060 f6 df 88 ba c5 b8 c6 bb 70 36 fb 3c ba a0 a8 bc
       -0.0010442722 -0.0060645067 0.030665606 -0.020584453
000070 1a 6a 64 3c 21 eb d9 3b 63 ce 1c bb f2 5e a4 bc
       0.013941312 0.006650344 -0.0023926727 -0.020064805
000080 c8 38 bd bc 57 28 8a bc c2 54 0a 3d 51 c2 92 3c
       -0.023098364 -0.016864939 0.033772238 0.017914923
000090 de 6d ff 3c 97 b5 32 bc 18 d7 fd 3a a8 ce 78 3c
       0.031180318 -0.010907552 0.0019366471 0.015185989
0000a0 f0 75 09 3d a1 30 0d bd 94 6f 86 3c 7f de c6 bc
       0.03355974 -0.034470204 0.016410626 -0.024276016
0000b0 67 1e 00 bd ef 56 e6 3c 09 0c 7b bb 02 38 00 3d
       -0.031278994 0.028117625 -0.0038306734 0.031303413
0000c0 f9 1a f6 3b 60 63 c5 bc 16 dc ac bc 30 ad c7 bc
       0.0075105396 -0.024095237 -0.021101039 -0.024374574
0000d0 c1 be 43 bc 96 81 cd 3c df 87 b0 bc b5 0c 9f bc
       -0.011947335 0.025086205 -0.021549163 -0.019415239
0000e0 b3 83 ac 3b a0 c7 d3 bc 5b 4a de 3c e4 9f a9 3c
       0.005264723 -0.025852025 0.027135065 0.020706125
0000f0 ec 34 74 bc 70 65 c2 3b 24 72 bf 3c a2 8d 00 3d
       -0.014905196 0.0059325024 0.023369856 0.03138507
000100 a0 b8 c4 3c 7b 65 1a 3d c0 fc 96 3c 9c 5b d9 bc
       0.024013817 0.037694436 0.018431067 -0.02653294
000110 ea 08 30 bc b9 11 cf ba 9e 9b c4 bb ed 51 3b bc
       -0.010744313 -0.0015798128 -0.0059999963 -0.011433107
000120 a6 cf 82 bb 0a d0 c6 bc e9 e7 db bc 64 27 38 3c
       -0.003992039 -0.024269123 -0.026843982 0.01123986
000130 0d b1 c1 bc 88 7d 18 bc 6c e9 1b 3c d3 46 e1 3c
       -0.023643995 -0.009307273 0.009516101 0.027499592
000140 b0 bf 08 3d 91 3b 7a bc 82 5f 09 bd a6 60 10 bc
       0.033385932 -0.015272991 -0.03353835 -0.008812105
000150 42 1d 59 bc 70 fb dd bc 9a 75 cc bc 8d d7 1c 3d
       -0.0132516045 -0.027097434 -0.02495842 0.038291503
000160 b8 e6 82 bc be 3b c3 bc c2 54 00 bd 74 dd df 3c
       -0.015979156 -0.023832198 -0.03133083 0.027327277
000170 bc df 8d bc e3 68 47 3c 50 a5 70 bc c6 3a 06 3d
       -0.017318599 0.012171003 -0.014687851 0.032770894
000180 29 f4 2e bb 30 4b 97 3c f5 21 e1 3c 50 67 4a bc
       -0.0026695824 0.01846847 0.027482012 -0.012353733
000190 9c 86 0a bc bf 57 07 bd 25 e2 fe 3c 6e 18 0b 3d
       -0.008454945 -0.033042666 0.031113693 0.033958845
0001a0 f3 ef 4e bb 2b 5c 6e 3b 81 17 f7 3c e9 a6 91 bc
       -0.0031576126 0.0036370854 0.030162575 -0.017779784
0001b0 b5 d1 a8 3c 3c d7 8c bb ca db d6 bc 96 39 e6 bc
       0.020607809 -0.004298119 -0.02622785 -0.028103631
0001c0 38 b2 b4 bc 43 ba 9b 3c 7b 9f 94 bb ab 0f 24 3c
       -0.022057638 0.019009715 -0.004535613 0.010013501
0001d0 b5 11 63 3c e6 45 d9 bb bc 09 33 bc 5d c0 25 3b
       0.013859202 -0.006630647 -0.010927614 0.002529166
0001e0 9c 39 46 bc a9 60 9d bc 38 81 7b 3c 1d e0 23 3a
       -0.012098696 -0.01921113 0.015350632 0.0006251352
0001f0 3e 02 88 3b c8 24 97 bc c0 37 89 3c 7b 85 06 3c
       0.004150658 -0.018450156 0.016750216 0.008210535
000200 f2 0b ea bc 98 83 0b bd 59 0d 0b bd ac c2 9a 3c
       -0.02857015 -0.034061044 -0.033948276 0.018891655
000210 06 a3 dd bc e7 c9 9a bc 23 1b bb 3c 0a 1f 65 bc
       -0.027055275 -0.018895103 0.022840088 -0.013984451
000220 65 44 85 3c 56 f2 8f bb bf d2 d1 bc b9 b8 b0 bc
       0.016267965 -0.0043929024 -0.025613187 -0.021572458
000230 d9 26 23 3c 8e ca f5 3b 11 1c 7e 3c 4a 38 c4 3c
       0.0099579925 0.007500953 0.015509621 0.023952622
000240 dd d6 1a bc a3 64 d5 3c db 38 c4 3a dd c4 95 3c
       -0.009450641 0.026048964 0.0014970558 0.018282348
000250 c7 95 f1 3c 00 c2 c5 3c 0a ce 08 3d 18 bc 59 3c
       0.029490365 0.024140358 0.03339962 0.013289474
000260 e3 d2 ae 3c ed c3 b5 bc 0e 47 31 bc 13 fc e2 bb
       0.021340793 -0.022188151 -0.010820163 -0.0069270222
000270 b0 71 f3 bc bf c4 1a 3d db c0 1c bb 1b 10 04 bc
       -0.029717296 0.037785288 -0.0023918662 -0.0080604805
000280 85 56 e6 3b bc 47 01 bd a3 f2 4f bc 32 d9 64 3c
       0.007029357 -0.03156255 -0.012692126 0.013967799
000290 ea 50 59 3c c2 e5 b3 bc d9 52 1a bd 91 af 33 3c
       0.01326392 -0.021960143 -0.037676666 0.010967151
0002a0 40 04 85 3c e1 82 dc 3c ef 15 bf 3c ac 81 78 3c
       0.016237378 0.026917877 0.023325888 0.015167635
0002b0 e7 e5 25 bc f1 76 a4 3c 32 d9 ed 3c 26 dd e0 3c
       -0.010125614 0.020076247 0.02903423 0.027449202
0002c0 67 79 9d bc 22 5e d1 bc e8 d4 35 bc 2c f3 06 3d
       -0.019222928 -0.025557581 -0.011098124 0.03294675
0002d0 46 89 a6 bc 7a 95 fd bc a7 d6 95 bc 68 76 f0 bc
       -0.020329129 -0.030955065 -0.01829083 -0.029353335
0002e0 30 4a ad bc 92 40 fb 3c c7 c6 13 3d 8a 9d 36 bc
       -0.02115354 0.030670438 0.03607824 -0.011145959
0002f0 ad aa fb 3c ef 09 a2 3c 84 b6 e1 bc 79 e4 c7 ba
       0.030721033 0.019780127 -0.02755285 -0.0015250585
000300 58 77 5d 3b f7 a1 12 3c 80 c1 e3 bc 01 1b ff 3c
       0.0033793058 0.008949748 -0.027802229 0.031140806
000310 12 2b cf 3b 63 de 6a 3b bc 2b db bc 3c d3 80 bc
       0.006322273 0.003583812 -0.026754253 -0.015725724
000320 f1 d8 fe bc 67 bc 08 3d 45 b4 c7 bc 5a 68 5b 3c
       -0.031109305 0.0333828 -0.024377951 0.013391579
000330 1b 1c 84 bc a4 e3 9a bb 20 6c 2e bb 8c 46 56 bc
       -0.016126683 -0.004726844 -0.002661474 -0.013078343
000340 a7 d4 6d 3c 7d cc d9 bc 96 b9 22 3c 92 c9 12 bb
       0.014516032 -0.026586765 0.009931942 -0.0022397977
000350 da 6b 0b 3c 45 6e 71 3c b0 26 da 3c b6 16 50 3c
       0.008509601 0.014735763 0.026629776 0.012700727
000360 96 c9 5c 3c 14 13 48 3b 10 81 08 3d a6 05 c9 bc
       0.013475796 0.003052895 0.03332621 -0.024538826
000370 25 74 89 bc c7 76 e1 3c 59 bc b4 3c 74 d1 c7 3c
       -0.016779015 0.027522458 0.022062467 0.024391867
000380 63 19 27 3a 78 88 9a 3c 30 01 05 bd ff 59 d3 bc
       0.00063743273 0.018863901 -0.032471836 -0.02579975
000390 74 66 09 bc 30 5e 9e 3c 61 61 4e bc 7a a8 13 3c
       -0.008386243 0.019332021 -0.012596459 0.009012336
0003a0 4a b8 e7 bc 2b 13 59 bc 20 91 87 3b d3 e1 d7 3c
       -0.028286118 -0.013249199 0.0041371733 0.026352799
0003b0 ad 8f e1 bc 2d 75 1d bc 27 33 ef 3c 4d 33 2c 3c
       -0.02753433 -0.009610456 0.029199196 0.010510278
0003c0 63 03 d4 bc 5c 2e c6 bb 4c 9d 18 3c 37 4c c4 3c
       -0.025880521 -0.006048007 0.009314846 0.023962123
0003d0 63 eb 00 bd 6a 84 cb bc 4e 2c ba bc 5f ee 0a bc
       -0.031474482 -0.024843413 -0.022726204 -0.008479684
0003e0 d6 09 13 3d ec 7e 25 3c 9c 38 d5 bc cb 7f e9 bc
       0.035898052 0.010101061 -0.02602797 -0.02850332
0003f0 db a2 32 3a 05 83 f6 bc 22 36 36 bc 5d 02 12 bd
       0.00068144285 -0.030091772 -0.011121305 -0.035646785

model.0.bias f4 [64]
000000 43 7f 42 3b 41 79 7a 3b c2 a1 14 3d 09 cf cb 3b
       0.0029677905 0.0038219246 0.036287077 0.006219749
000010 9b 41 50 bc cd d9 b5 bc f6 b8 18 bc a6 27 70 3c
       -0.012710954 -0.022198582 -0.009321442 0.01465789
000020 fc 7f 73 bc 09 76 8f 3c ad e7 aa bb 2a 3f bb bc
       -0.014862057 0.017512338 -0.005215606 -0.022857267
000030 20 72 8a 3c 32 5c 7a 3c e2 32 af 3c 8e a2 c4 bc
       0.016900122 0.01528077 0.021386568 -0.024003293
000040 ae 6d b0 3a 6f de 8b 3c 97 95 96 bb 6b 11 e2 bc
       0.0013460421 0.017073838 -0.004595469 -0.027596196
000050 44 b5 db ba 76 d6 34 3b f8 56 90 3a 12 dc 9f bc
       -0.0016762395 0.002759365 0.0011012247 -0.019514117
000060 35 d6 40 bc 09 81 94 bc 85 be ea bc 7c 9c 57 bb
       -0.011769821 -0.018127935 -0.0286553 -0.0032899668
000070 d0 73 bb 3b bd 8e d4 3c 34 97 bf 3b 4f 34 02 3d
       0.005720593 0.02594697 0.0058468822 0.031788167
000080 91 56 19 bc 19 e6 1f 3c 31 45 53 3d 62 7c fe 3b
       -0.009359018 0.009759449 0.051579658 0.0077662924
000090 6a 33 93 bc b0 45 96 3c ff 54 42 3c 11 03 ca 3c
       -0.017968852 0.018343776 0.011861085 0.024659665
0000a0 7d db 84 3b 0b 84 0e bd c9 71 0d bc 7f 98 e7 3b
       0.0040544854 -0.034793895 -0.0086330855 0.0070677395
0000b0 a9 d0 9f bc 8d 1d 00 bc 00 5a 95 3b e1 6a d1 bc
       -0.019508677 -0.007819545 0.004557848 -0.02556366
0000c0 3c 92 11 bd a7 62 df bc 6d e2 a1 bc 6a a8 b2 3c
       -0.03553985 -0.02726872 -0.019761289 0.021808822
0000d0 0a a6 d3 bc aa 1c 12 bc cb 14 a4 3c 39 71 6e bb
       -0.02583601 -0.008917967 0.020029446 -0.0036383404
0000e0 68 96 54 3b 44 c3 d9 bc 4e 65 a4 3c b5 56 94 3c
       0.0032438282 -0.026582368 0.020067837 0.018107751
0000f0 52 48 00 bd 3c 8f 0b bd 6f dd ce 3a 1a 93 23 bc
       -0.03131897 -0.034072146 0.0015782545 -0.009983802

model.2.weight f4 [1, 64]
000000 b6 ff a2 bd bd 19 e2 bf 24 f0 f2 bf f4 80 ea 3d
       -0.07958929 -1.7664105 -1.8979535 0.11450377
000010 99 21 d2 bc 30 9f 7a 3c fc ff 74 3f 80 67 ae bc
       -0.025650786 0.015296742 0.957031 -0.021289587
000020 42 3d 8e bd 6c 22 94 3d f2 1c 9a 3d f4 ce 45 3d
       -0.06945278 0.07233128 0.07525052 0.04829307
000030 b4 33 5e 3d 00 e3 f0 3d 1c b2 ed 3d 4e f3 b9 3d
       0.054248527 0.11762047 0.11606237 0.0907961
000040 be 47 b5 3d c3 1a ed 3d 63 11 87 bd ec da 9c bd
       0.08851574 0.1157737 -0.06595113 -0.076589435
000050 03 3f ed bd b2 9a 0a bd 67 83 0f bd 7c 78 de bc
       -0.11584284 -0.033838935 -0.035037424 -0.02715706
000060 c6 a5 f9 3d 9e 3c 85 3d 58 2b d9 3c 74 01 c2 3d
       0.12189822 0.065057024 0.026509926 0.094729334
000070 13 ff 51 3d c2 28 93 3c 8c 54 42 bd 78 40 f1 bc
       0.05126865 0.01796377 -0.04744391 -0.029449686
000080 b0 04 6f 3c 22 f6 e6 3d 2a bd f2 bf 20 43 0a 3c
       0.01458852 0.11277415 -1.8963978 0.008438855
000090 0b 6f f3 bd 3f 2d aa 3b 3e 62 70 bd 24 3d de 3d
       -0.11886414 0.005193382 -0.05868744 0.108515054
0000a0 ec d4 9f bd 54 06 cf 3d f8 4d a9 3d 20 e2 4c 3c
       -0.078042835 0.10108629 0.082668245 0.012505084
0000b0 68 f0 21 bd c6 20 ae 3d 80 1c 88 3d a2 e9 be bc
       -0.03953591 0.08502345 0.06646061 -0.023304764
0000c0 c6 1f 97 3d 34 67 fc bd a8 c0 f1 3c ea f1 be bd
       0.07379107 -0.12324372 0.029510811 -0.09323485
0000d0 98 e9 aa 3d 18 09 a2 3d d5 75 b2 3d 0a 27 91 3d
       0.08345336 0.07911891 0.08713881 0.07087524
0000e0 58 ab ce 3d 95 54 e0 3c 12 d3 aa bd 89 29 41 3c
       0.10091275 0.027384082 -0.0834104 0.011789688
0000f0 46 77 ab 3d 18 0a d8 bb dc c2 8d 3f ed 74 0f bd
       0.08372359 -0.006593 1.1075091 -0.03502362

exp_avg f4 [64, 768]
000000 04 00 00 80 04 00 00 80 04 00 00 80 04 00 00 80
       -6e-45 -6e-45 -6e-45 -6e-45
000010 04 00 00 00 04 00 00 00 04 00 00 00 04 00 00 80
       6e-45 6e-45 6e-45 -6e-45
000020 04 00 00 80 04 00 00 80 04 00 00 00 04 00 00 00
       -6e-45 -6e-45 6e-45 6e-45
000030 04 00 00 80 04 00 00 00 04 00 00 80 04 00 00 00
       -6e-45 6e-45 -6e-45 6e-45
000040 04 00 00 00 04 00 00 80 04 00 00 00 04 00 00 80
       6e-45 -6e-45 6e-45 -6e-45
000050 04 00 00 80 04 00 00 00 04 00 00 00 04 00 00 00
       -6e-45 6e-45 6e-45 6e-45
000060 04 00 00 00 04 00 00 00 04 00 00 80 04 00 00 00
       6e-45 6e-45 -6e-45 6e-45
000070 04 00 00 00 04 00 00 00 04 00 00 00 04 00 00 00
       6e-45 6e-45 6e-45 6e-45
000080 04 00 00 00 04 00 00 00 04 00 00 80 04 00 00 00
       6e-45 6e-45 -6e-45 6e-45
000090 04 00 00 80 04 00 00 00 04 00 00 00 04 00 00 80
       -6e-45 6e-45 6e-45 -6e-45
0000a0 04 00 00 80 04 00 00 00 04 00 00 00 04 00 00 80
       -6e-45 6e-45 6e-45 -6e-45
0000b0 04 00 00 80 04 00 00 00 04 00 00 00 04 00 00 00
       -6e-45 6e-45 6e-45 6e-45
0000c0 04 00 00 80 04 00 00 80 04 00 00 80 04 00 00 00
       -6e-45 -6e-45 -6e-45 6e-45
0000d0 04 00 00 00 04 00 00 00 04 00 00 80 04 00 00 00
       6e-45 6e-45 -6e-45 6e-45
0000e0 04 00 00 80 04 00 00 00 04 00 00 80 04 00 00 80
       -6e-45 6e-45 -6e-45 -6e-45
0000f0 04 00 00 80 04 00 00 80 04 00 00 80 04 00 00 80
       -6e-45 -6e-45 -6e-45 -6e-45
000100 04 00 00 00 04 00 00 80 04 00 00 00 04 00 00 80
       6e-45 -6e-45 6e-45 -6e-45
000110 04 00 00 80 04 00 00 00 04 00 00 80 04 00 00 00
       -6e-45 6e-45 -6e-45 6e-45
000120 04 00 00 00 04 00 00 80 04 00 00 80 04 00 00 00
       6e-45 -6e-45 -6e-45 6e-45
000130 04 00 00 80 04 00 00 80 04 00 00 00 04 00 00 00
       -6e-45 -6e-45 6e-45 6e-45
000140 04 00 00 80 04 00 00 00 04 00 00 00 04 00 00 00
       -6e-45 6e-45 6e-45 6e-45
000150 04 00 00 80 04 00 00 80 04 00 00 80 04 00 00 80
       -6e-45 -6e-45 -6e-45 -6e-45
000160 04 00 00 00 04 00 00 00 04 00 00 80 04 00 00 80
       6e-45 6e-45 -6e-45 -6e-45
000170 04 00 00 00 04 00 00 00 04 00 00 80 04 00 00 00
       6e-45 6e-45 -6e-45 6e-45
000180 04 00 00 80 04 00 00 80 04 00 00 80 04 00 00 80
       -6e-45 -6e-45 -6e-45 -6e-45
000190 04 00 00 00 04 00 00 80 04 00 00 80 04 00 00 00
       6e-45 -6e-45 -6e-45 6e-45
0001a0 04 00 00 80 04 00 00 80 04 00 00 80 04 00 00 00
       -6e-45 -6e-45 -6e-45 6e-45
0001b0 04 00 00 00 04 00 00 80 04 00 00 80 04 00 00 00
       6e-45 -6e-45 -6e-45 6e-45
0001c0 04 00 00 00 04 00 00 80 04 00 00 00 04 00 00 00
       6e-45 -6e-45 6e-45 6e-45
0001d0 04 00 00 00 04 00 00 80 04 00 00 00 04 00 00 80
       6e-45 -6e-45 6e-45 -6e-45
0001e0 04 00 00 00 04 00 00 80 04 00 00 00 04 00 00 00
       6e-45 -6e-45 6e-45 6e-45
0001f0 04 00 00 80 04 00 00 00 04 00 00 00 04 00 00 00
       -6e-45 6e-45 6e-45 6e-45
000200 04 00 00 00 04 00 00 00 04 00 00 80 04 00 00 00
       6e-45 6e-45 -6e-45 6e-45
000210 04 00 00 80 04 00 00 00 04 00 00 00 04 00 00 00
       -6e-45 6e-45 6e-45 6e-45
000220 04 00 00 00 04 00 00 80 04 00 00 80 04 00 00 00
       6e-45 -6e-45 -6e-45 6e-45
000230 04 00 00 00 04 00 00 00 04 00 00 80 04 00 00 00
       6e-45 6e-45 -6e-45 6e-45
000240 04 00 00 00 04 00 00 00 04 00 00 00 04 00 00 80
       6e-45 6e-45 6e-45 -6e-45
000250 04 00 00 00 04 00 00 00 04 00 00 00 04 00 00 00
       6e-45 6e-45 6e-45 6e-45
000260 04 00 00 80 04 00 00 80 04 00 00 80 04 00 00 80
       -6e-45 -6e-45 -6e-45 -6e-45
000270 04 00 00 00 04 00 00 80 04 00 00 80 04 00 00 00
       6e-45 -6e-45 -6e-45 6e-45
000280 04 00 00 00 04 00 00 80 04 00 00 80 04 00 00 80
       6e-45 -6e-45 -6e-45 -6e-45
000290 04 00 00 80 04 00 00 80 04 00 00 00 04 00 00 00
       -6e-45 -6e-45 6e-45 6e-45
0002a0 04 00 00 80 04 00 00 80 04 00 00 80 04 00 00 80
       -6e-45 -6e-45 -6e-45 -6e-45
0002b0 04 00 00 80 04 00 00 00 04 00 00 80 04 00 00 00
       -6e-45 6e-45 -6e-45 6e-45
0002c0 04 00 00 80 04 00 00 00 04 00 00 00 04 00 00 00
       -6e-45 6e-45 6e-45 6e-45
0002d0 04 00 00 80 04 00 00 80 04 00 00 80 04 00 00 00
       -6e-45 -6e-45 -6e-45 6e-45
0002e0 04 00 00 00 04 00 00 00 04 00 00 80 04 00 00 00
       6e-45 6e-45 -6e-45 6e-45
0002f0 04 00 00 00 04 00 00 00 04 00 00 00 04 00 00 80
       6e-45 6e-45 6e-45 -6e-45
000300 04 00 00 80 04 00 00 00 04 00 00 80 04 00 00 00
       -6e-45 6e-45 -6e-45 6e-45
000310 04 00 00 80 04 00 00 00 04 00 00 80 04 00 00 80
       -6e-45 6e-45 -6e-45 -6e-45
000320 04 00 00 00 04 00 00 80 04 00 00 80 04 00 00 00
       6e-45 -6e-45 -6e-45 6e-45
000330 04 00 00 00 04 00 00 00 04 00 00 80 04 00 00 80
       6e-45 6e-45 -6e-45 -6e-45
000340 04 00 00 00 04 00 00 00 04 00 00 00 04 00 00 80
       6e-45 6e-45 6e-45 -6e-45
000350 04 00 00 00 04 00 00 80 04 00 00 80 04 00 00 80
       6e-45 -6e-45 -6e-45 -6e-45
000360 04 00 00 00 04 00 00 00 04 00 00 00 04 00 00 80
       6e-45 6e-45 6e-45 -6e-45
000370 04 00 00 80 04 00 00 00 04 00 00 00 04 00 00 80
       -6e-45 6e-45 6e-45 -6e-45
000380 04 00 00 00 04 00 00 80 04 00 00 80 04 00 00 80
       6e-45 -6e-45 -6e-45 -6e-45
000390 04 00 00 00 04 00 00 00 04 00 00 00 04 00 00 80
       6e-45 6e-45 6e-45 -6e-45
0003a0 04 00 00 00 04 00 00 80 04 00 00 80 04 00 00 80
       6e-45 -6e-45 -6e-45 -6e-45
0003b0 04 00 00 80 04 00 00 00 04 00 00 00 04 00 00 00
       -6e-45 6e-45 6e-45 6e-45
0003c0 04 00 00 00 04 00 00 00 04 00 00 00 04 00 00 00
       6e-45 6e-45 6e-45 6e-45
0003d0 04 00 00 00 04 00 00 80 04 00 00 00 04 00 00 80
       6e-45 -6e-45 6e-45 -6e-45
0003e0 04 00 00 80 04 00 00 80 04 00 00 80 04 00 00 80
       -6e-45 -6e-45 -6e-45 -6e-45
0003f0 04 00 00 00 04 00 00 80 04 00 00 00 04 00 00 00
       6e-45 -6e-45 6e-45 6e-45

exp_avg_sq f4 [64, 768]
000000 30 b6 31 22 c5 98 f9 26 d1 ac 04 27 e4 e0 8a 25
       2.4084422e-18 1.7319254e-15 1.8412364e-15 2.4091576e-16
000010 9d 3c 2a 26 55 43 04 27 5c af 2b 27 e6 4d 04 25
       5.9062744e-16 1.835518e-15 2.382608e-15 1.1475568e-16
000020 9a 1e 7c 25 8d 05 a5 26 3d b9 54 27 54 d9 90 22
       2.1867884e-16 1.145068e-15 2.9521328e-15 3.9261383e-18
000030 45 d7 ae 25 d8 8c 24 26 12 d3 a6 26 0f d1 1c 28
       3.033006e-16 5.708981e-16 1.1575775e-15 8.705072e-15
000040 c3 a1 08 27 28 a0 18 28 f8 f2 17 25 c1 10 01 24
       1.8961483e-15 8.472423e-15 1.3179483e-16 2.7986607e-17
000050 e9 a9 25 27 7c 1d 4d 25 c1 9e 18 28 5e 50 98 27
       2.2990458e-15 1.7790905e-16 8.472119e-15 4.227561e-15
000060 cb 4a 17 26 69 9f e6 24 e7 18 9c 26 74 c0 8b 22
       5.249001e-16 1.0001665e-16 1.0831424e-15 3.7879793e-18
000070 dd ef 4c 26 c7 74 13 27 79 6b 7a 27 8c 2e 80 24
       7.1101793e-16 2.0463653e-15 3.475273e-15 5.5590005e-17
000080 61 9c c5 25 c8 32 2e 27 38 90 1a 27 88 00 50 25
       3.428002e-16 2.417488e-15 2.1449974e-15 1.8041304e-16
000090 42 ef 8b 27 f5 2e 8d 22 a9 d9 4f 27 1e 0c f8 26
       3.8839654e-15 3.8267844e-18 2.8845015e-15 1.7211741e-15
0000a0 92 c8 bb 25 aa fd cb 26 16 45 ce 26 c3 aa 68 26
       3.257524e-16 1.415471e-15 1.4312847e-15 8.0722595e-16
0000b0 a5 45 f2 25 81 fe e3 27 f1 3e 32 27 1d c8 94 23
       4.20275e-16 6.328109e-15 2.4736583e-15 1.6130943e-17
0000c0 76 8e 39 26 46 20 aa 25 8c bf 9a 27 ac 81 9f 27
       6.437784e-16 2.9512168e-16 4.295126e-15 4.4271956e-15
0000d0 83 64 84 27 57 a9 bc 26 e2 ac c7 24 a4 76 04 25
       3.6746335e-15 1.309102e-15 8.659537e-17 1.1489372e-16
0000e0 4f 10 10 26 9d ad 2d 27 16 a2 12 25 3e 25 c9 25
       4.998214e-16 2.4102689e-15 1.2718398e-16 3.4893178e-16
0000f0 99 8d ef 25 e1 db e7 26 cc 28 50 22 8e 80 30 24
       4.1555841e-16 1.6088443e-15 2.8210854e-18 3.8272807e-17
000100 b1 84 4a 23 1b 52 79 26 24 76 0e 26 26 7c 65 26
       1.09785404e-17 8.6500503e-16 4.9426257e-16 7.961859e-16
000110 8d 91 69 26 2b ec fb 24 b3 05 da 25 8d 6b 41 26
       8.103537e-16 1.0925398e-16 3.7820834e-16 6.7106085e-16
000120 80 3d bf 26 bd c7 86 27 63 46 59 27 f2 6a ec 24
       1.3269957e-15 3.740903e-15 3.0152956e-15 1.0252986e-16
000130 e5 4f 7a 28 3b 38 f6 25 ce b5 85 27 d9 4b 05 28
       1.3895112e-14 4.27123e-16 3.711203e-15 7.39943e-15
000140 90 0a 68 25 6e 1c f4 26 c1 42 21 24 c5 2f 07 27
       2.0126371e-16 1.6938607e-15 3.4967853e-17 1.876091e-15
000150 13 4c ed 23 4d 7d 25 24 0d ce 62 24 31 d6 6f 26
       2.572781e-17 3.5884806e-17 4.918047e-17 8.3210066e-16
000160 56 58 ae 26 00 3b 17 27 a5 69 df 26 19 46 d6 27
       1.2097619e-15 2.0987444e-15 1.5502368e-15 5.947293e-15
000170 d0 3b a0 25 a5 eb 3b 23 5e fb 01 26 25 e4 7b 24
       2.7796106e-16 1.018719e-17 4.509653e-16 5.4620195e-17
000180 9f 0c c1 24 14 1e be 25 d9 37 99 26 ea 9a b1 26
       8.372179e-17 3.2980128e-16 1.0631645e-15 1.2323832e-15
000190 f6 bc 6d 25 6a 43 30 27 f7 00 62 26 40 8b 32 27
       2.0620496e-16 2.4461452e-15 7.841081e-16 2.477795e-15
0001a0 7f 66 ee 22 62 01 de 26 32 98 39 23 c1 2f 76 27
       6.461855e-18 1.5404719e-15 1.0061099e-17 3.4165245e-15
0001b0 c9 ee a5 25 ef a4 cf 25 e0 db a9 26 b7 c7 09 28
       2.8784744e-16 3.602054e-16 1.1786328e-15 7.648334e-15
0001c0 ac 7a a0 27 55 43 ab 24 a4 e8 ab 23 23 4a 93 26
       4.454192e-15 7.4273493e-17 1.8638384e-17 1.0220269e-15
0001d0 cc c8 2b 26 6c 04 54 27 ce 71 01 28 14 b4 6d 27
       5.9599673e-16 2.9423307e-15 7.185616e-15 3.2987978e-15
0001e0 7e 1c 94 21 d3 cf d4 25 f6 0d 3f 26 ff b6 cd 26
       1.0036412e-18 3.6916965e-16 6.628536e-16 1.4274334e-15
0001f0 ed d1 10 27 dd 3f 42 27 03 d3 36 26 79 9a 61 27
       2.0097815e-15 2.6957529e-15 6.342991e-16 3.1308762e-15
000200 0f c2 ac 26 07 ae fc 25 c7 69 3f 24 25 e4 15 26
       1.1987497e-15 4.3832957e-16 4.150612e-17 5.2003953e-16
000210 99 49 fc 25 6e 6c 75 26 6f 1a 14 27 e0 6d ef 25
       4.3764903e-16 8.51484e-16 2.0553456e-15 4.1534345e-16
000220 dc b3 0e 23 ac 31 9c 27 c2 ec 04 27 64 5e 48 27
       7.735922e-18 4.3352552e-15 1.8447027e-15 2.7806745e-15
000230 0f 2c a0 27 25 3e 33 26 c1 ec 23 25 92 03 df 26
       4.445669e-15 6.218732e-16 1.4218212e-16 1.5474701e-15
000240 86 6f cd 25 8d e0 0d 27 b0 0a 2a 26 93 45 cc 27
       3.5637402e-16 1.968941e-15 5.899508e-16 5.6696807e-15
000250 0a 37 7a 25 96 1b ae 27 17 d7 ac 25 3c 9d 5a 26
       2.1702691e-16 4.832461e-15 2.9982994e-16 7.5847036e-16
000260 e9 82 19 26 76 a5 6b 27 2b e2 4b 27 78 95 d0 25
       5.3259955e-16 3.2702498e-15 2.8294515e-15 3.6183532e-16
000270 e2 c9 12 24 33 e5 8e 27 1c 24 18 26 7b bb c0 27
       3.1829705e-17 3.9661416e-15 5.278453e-16 5.349397e-15
000280 a9 cc 59 25 c4 dc f3 23 00 91 a7 26 d0 32 06 27
       1.8891091e-16 2.643961e-17 1.1627255e-15 1.8623781e-15
000290 7c 9f 22 24 0c c8 51 26 12 7f ca 23 06 ca 06 26
       3.526324e-17 7.2782555e-16 2.19547e-17 4.676438e-16
0002a0 7d 7a 1f 25 71 e3 07 28 6e b6 20 26 38 af 49 28
       1.3832552e-16 7.543324e-15 5.575839e-16 1.1195736e-14
0002b0 42 87 0e 26 4c 58 f4 26 0e 19 8b 27 30 57 40 27
       4.9449455e-16 1.6954834e-15 3.8607414e-15 2.6692617e-15
0002c0 42 fc 4b 27 c0 01 21 26 0e 09 d2 27 6c a3 8a 24
       2.8308658e-15 5.586047e-16 5.8296526e-15 6.012481e-17
0002d0 e4 e7 e9 21 bb be e5 26 a3 b9 da 23 ad 91 c1 25
       1.5850075e-18 1.5941765e-15 2.3714228e-17 3.3578877e-16
0002e0 7c ca 89 27 50 67 30 27 fc 98 e2 27 13 01 ef 25
       3.8244673e-15 2.4480912e-15 6.2893467e-15 4.146062e-16
0002f0 0e de 4a 26 b7 c6 44 27 88 82 45 26 55 c3 48 25
       7.038377e-16 2.7308188e-15 6.852501e-16 1.7413416e-16
000300 08 b0 40 26 ec 29 25 26 60 45 df 26 d4 5f cb 26
       6.685195e-16 5.730269e-16 1.5492538e-15 1.4111929e-15
000310 85 b5 f1 26 26 9d a4 26 3e fb 24 27 26 d0 e6 26
       1.6771935e-15 1.1422381e-15 2.289577e-15 1.6015875e-15
000320 26 34 81 27 9e 18 df 27 c7 8e 56 24 04 85 80 25
       3.586123e-15 6.1921624e-15 4.652479e-17 2.2294595e-16
000330 d8 98 32 27 89 41 4b 22 5a 40 02 25 9c 1f c4 25
       2.478532e-15 2.7546324e-18 1.1297506e-16 3.4022e-16
000340 3d 7a 2e 26 5f 7a c4 26 88 14 40 26 7f 2b e0 27
       6.053404e-16 1.3633401e-15 6.6641207e-16 6.221965e-15
000350 f8 28 65 27 b4 b4 d2 23 a3 87 9a 24 3a 40 17 25
       3.1802343e-15 2.2844776e-17 6.701663e-17 1.3118923e-16
000360 38 b2 b2 26 3d a2 26 27 a7 42 fc 25 61 c9 ca 27
       1.2399537e-15 2.3125077e-15 4.3760197e-16 5.62846e-15
000370 ab e1 62 26 5a 4a 66 26 46 00 6e 27 97 9a 20 27
       7.871534e-16 7.9898045e-16 3.3029283e-15 2.2288264e-15
000380 1f 99 b7 26 da 1d 7b 27 c1 39 f3 27 92 db 0e 26
       1.2739679e-15 3.484943e-15 6.7508666e-15 4.956372e-16
000390 6a f7 0a 27 46 47 eb 26 ea f0 ae 26 c7 67 58 27
       1.928547e-15 1.6325719e-15 1.2138975e-15 3.003228e-15
0003a0 bd 20 99 26 64 10 73 26 48 61 01 28 01 ed bc 27
       1.0625381e-15 8.4329774e-16 7.182033e-15 5.2437442e-15
0003b0 51 8f fb 25 11 6a 55 27 9e 38 c5 26 4a 32 84 26
       4.3638674e-16 2.9617187e-15 1.3684967e-15 9.172971e-16
0003c0 a1 e0 37 27 a3 37 56 23 0d 27 26 26 32 ba 96 26
       2.5518123e-15 1.1612745e-17 5.7645743e-16 1.0458809e-15
0003d0 0e 95 6f 26 23 17 18 26 69 2d cb 26 43 6a b7 27
       8.312179e-16 5.276695e-16 1.4098263e-15 5.0907913e-15
0003e0 45 79 bb 24 7f 1a 67 27 21 ec cc 26 65 56 02 27
       8.130376e-17 3.2072053e-15 1.4219346e-15 1.8087959e-15
0003f0 df 9b f2 27 be 9a 2b 27 57 da 20 27 ab 74 d2 27
       6.733749e-15 2.3814903e-15 2.2322823e-15 5.84132e-15

exp_avg f4 [64]
000000 04 00 00 00 e6 34 0d bb 85 dc 1c bb 00 00 00 00
       6e-45 -0.0021546423 -0.002393515 0.0
000010 04 00 00 00 04 00 00 00 e2 b0 97 3a 00 00 00 00
       6e-45 6e-45 0.0011573101 0.0
000020 00 00 00 00 00 00 00 00 00 00 00 00 04 00 00 00
       0.0 0.0 0.0 6e-45
000030 04 00 00 00 00 00 00 00 04 00 00 00 04 00 00 00
       6e-45 0.0 6e-45 6e-45
000040 00 00 00 00 04 00 00 00 04 00 00 00 00 00 00 00
       0.0 6e-45 6e-45 0.0
000050 04 00 00 00 04 00 00 00 04 00 00 00 04 00 00 00
       6e-45 6e-45 6e-45 6e-45
000060 00 00 00 00 00 00 00 00 00 00 00 00 04 00 00 00
       0.0 0.0 0.0 6e-45
000070 04 00 00 00 04 00 00 00 00 00 00 00 00 00 00 00
       6e-45 6e-45 0.0 0.0
000080 00 00 00 00 00 00 00 00 b6 a6 17 bb 00 00 00 00
       0.0 0.0 -0.002314014 0.0
000090 04 00 00 00 04 00 00 00 04 00 00 00 00 00 00 00
       6e-45 6e-45 6e-45 0.0
0000a0 00 00 00 00 00 00 00 00 00 00 00 00 00 00 00 00
       0.0 0.0 0.0 0.0
0000b0 04 00 00 00 04 00 00 00 04 00 00 00 04 00 00 00
       6e-45 6e-45 6e-45 6e-45
0000c0 00 00 00 00 00 00 00 00 04 00 00 00 04 00 00 00
       0.0 0.0 6e-45 6e-45
0000d0 00 00 00 00 00 00 00 00 04 00 00 00 00 00 00 00
       0.0 0.0 6e-45 0.0
0000e0 00 00 00 00 04 00 00 00 04 00 00 00 04 00 00 00
       0.0 6e-45 6e-45 6e-45
0000f0 00 00 00 00 04 00 00 00 58 6d af 3a 04 00 00 00
       0.0 6e-45 0.0013384027 6e-45

exp_avg_sq f4 [64]
000000 2d 4a 28 29 2b d3 43 3c 95 67 62 3c 00 00 00 00
       3.736783e-14 0.011952202 0.013818641 0.0
000010 3c 03 98 27 23 64 62 28 fd 82 6a 3b 00 00 00 00
       4.219198e-15 1.2567234e-14 0.0035783642 0.0
000020 00 00 00 00 00 00 00 00 00 00 00 00 43 6f e2 29
       0.0 0.0 0.0 1.0055717e-13
000030 f3 3e e7 29 00 00 00 00 c1 64 29 2b 0e 4a d6 2a
       1.0269381e-13 0.0 6.0180685e-13 3.8065422e-13
000040 00 00 00 00 1d 9b 22 2b 89 42 8f 28 00 00 00 00
       0.0 5.7769225e-13 1.5905044e-14 0.0
000050 7a 96 c8 29 66 1f ff 27 c1 48 08 28 8b 4b a7 26
       8.907888e-14 7.081076e-15 7.5652926e-15 1.1608429e-15
000060 00 00 00 00 00 00 00 00 00 00 00 00 e8 d4 69 2a
       0.0 0.0 0.0 2.0768424e-13
000070 c7 d3 21 2a 18 6d be 28 00 00 00 00 00 00 00 00
       1.4373148e-13 2.114155e-14 0.0 0.0
000080 00 00 00 00 00 00 00 00 85 f2 61 3c 00 00 00 00
       0.0 0.0 0.013790731 0.0
000090 10 ca ba 29 f3 a1 d7 25 94 59 0b 27 00 00 00 00
       8.2951116e-14 3.7406296e-16 1.9338685e-15 0.0
0000a0 00 00 00 00 00 00 00 00 00 00 00 00 00 00 00 00
       0.0 0.0 0.0 0.0
0000b0 5f f1 5b 28 fd d4 76 26 44 5f 55 2a 53 c6 5a 27
       1.2209281e-14 8.563705e-16 1.8951252e-13 3.036109e-15
0000c0 00 00 00 00 00 00 00 00 4c e6 b7 23 8e d3 7d 29
       0.0 0.0 1.9938434e-17 5.636078e-14
0000d0 00 00 00 00 00 00 00 00 e6 4c ca 2a 00 00 00 00
       0.0 0.0 3.5935767e-13 0.0
0000e0 00 00 00 00 6d 38 09 28 c9 fd 6b 28 3f f2 16 28
       0.0 7.617263e-15 1.3100151e-14 8.3792014e-15
0000f0 00 00 00 00 aa 44 15 26 d1 1f 9d 3b 9f 61 8c 27
       0.0 5.1787817e-16 0.0047950526 3.8963647e-15

exp_avg f4 [1, 64]
000000 04 00 00 80 34 78 bc 3b e0 7c bd 3b 00 00 00 00
       -6e-45 0.005751634 0.0057827085 0.0
000010 04 00 00 80 04 00 00 00 3d 0b 81 bb 00 00 00 00
       -6e-45 6e-45 -0.0039381073 0.0
000020 00 00 00 00 00 00 00 00 00 00 00 00 04 00 00 00
       0.0 0.0 0.0 6e-45
000030 04 00 00 00 00 00 00 00 04 00 00 00 04 00 00 00
       6e-45 0.0 6e-45 6e-45
000040 00 00 00 00 04 00 00 00 04 00 00 80 00 00 00 00
       0.0 6e-45 -6e-45 0.0
000050 04 00 00 80 04 00 00 80 04 00 00 80 04 00 00 80
       -6e-45 -6e-45 -6e-45 -6e-45
000060 00 00 00 00 00 00 00 00 00 00 00 00 04 00 00 00
       0.0 0.0 0.0 6e-45
000070 04 00 00 00 04 00 00 00 00 00 00 00 00 00 00 00
       6e-45 6e-45 0.0 0.0
000080 00 00 00 00 00 00 00 00 ba 8b c3 3b 00 00 00 00
       0.0 0.0 0.0059675844 0.0
000090 04 00 00 80 04 00 00 00 04 00 00 80 00 00 00 00
       -6e-45 6e-45 -6e-45 0.0
0000a0 00 00 00 00 00 00 00 00 00 00 00 00 00 00 00 00
       0.0 0.0 0.0 0.0
0000b0 04 00 00 80 04 00 00 00 04 00 00 00 04 00 00 80
       -6e-45 6e-45 6e-45 -6e-45
0000c0 00 00 00 00 00 00 00 00 04 00 00 80 04 00 00 80
       0.0 0.0 -6e-45 -6e-45
0000d0 00 00 00 00 00 00 00 00 04 00 00 00 00 00 00 00
       0.0 0.0 6e-45 0.0
0000e0 00 00 00 00 04 00 00 00 04 00 00 80 04 00 00 00
       0.0 6e-45 -6e-45 6e-45
0000f0 00 00 00 00 04 00 00 80 bf f1 81 bb 04 00 00 80
       0.0 -6e-45 -0.003965586 -6e-45

exp_avg_sq f4 [1, 64]
000000 df 15 d1 28 e1 d5 34 3b ff 5a 06 3b 00 00 00 00
       2.3213146e-14 0.0027593302 0.0020501015 0.0
000010 5c 26 8c 27 a2 4f 92 2b cb 52 83 3c 00 00 00 00
       3.8899395e-15 1.0396026e-12 0.01603069 0.0
000020 00 00 00 00 00 00 00 00 00 00 00 00 fd 49 6f 2b
       0.0 0.0 0.0 8.5012536e-13
000030 97 68 29 2b 00 00 00 00 15 05 9d 2b 7c 92 d4 2b
       6.018601e-13 0.0 1.1156931e-12 1.5104164e-12
000040 00 00 00 00 0f e5 82 2b 30 c7 7a 25 00 00 00 00
       0.0 9.300632e-13 2.1751531e-16 0.0
000050 81 38 ef 29 8e c4 71 27 8f cb af 26 d3 b0 e3 23
       1.0623534e-13 3.3552021e-15 1.2198239e-15 2.4686277e-17
000060 00 00 00 00 00 00 00 00 00 00 00 00 d4 8e b2 2a
       0.0 0.0 0.0 3.171826e-13
000070 a8 2b 2f 2c 1e a5 64 2c 00 00 00 00 00 00 00 00
       2.489323e-12 3.2492407e-12 0.0 0.0
000080 00 00 00 00 00 00 00 00 34 d0 12 3b 00 00 00 00
       0.0 0.0 0.002240193 0.0
000090 71 8d 15 28 4a d8 f5 28 0a e1 b7 24 00 00 00 00
       8.301832e-15 2.7294265e-14 7.974483e-17 0.0
0000a0 00 00 00 00 00 00 00 00 00 00 00 00 00 00 00 00
       0.0 0.0 0.0 0.0
0000b0 db 61 26 2a 10 61 02 1f f7 9e 83 2b 3f 76 0e 26
       1.4777712e-13 2.760886e-20 9.352231e-13 4.94264e-16
0000c0 00 00 00 00 00 00 00 00 c8 b6 c6 1f 7b 17 4b 29
       0.0 0.0 8.415865e-20 4.509542e-14
0000d0 00 00 00 00 00 00 00 00 ec 6d f0 2b 00 00 00 00
       0.0 0.0 1.7083535e-12 0.0
0000e0 00 00 00 00 db a0 8f 29 2d c5 8a 23 3c c6 d8 2b
       0.0 6.37838e-14 1.5045497e-17 1.5402744e-12
0000f0 00 00 00 00 87 df 2a 2a df e9 67 3c 75 0f 0c 26
       0.0 1.5176585e-13 0.01415488 4.8593206e-16
